<?xml version="1.0"?>
<net name="main_graph" version="11">
	<layers>
		<layer id="0" name="images" type="Parameter" version="opset1">
			<data shape="1,3,640,640" element_type="f32" />
			<output>
				<port id="0" precision="FP32" names="images">
					<dim>1</dim>
					<dim>3</dim>
					<dim>640</dim>
					<dim>640</dim>
				</port>
			</output>
		</layer>
		<layer id="1" name="/model.22/Constant_13_output_0" type="Const" version="opset1">
			<data element_type="f32" shape="1, 2, 8400" offset="0" size="67200" />
			<output>
				<port id="0" precision="FP32" names="/model.22/Constant_13_output_0">
					<dim>1</dim>
					<dim>2</dim>
					<dim>8400</dim>
				</port>
			</output>
		</layer>
		<layer id="2" name="Constant_7249" type="Const" version="opset1">
			<data element_type="f32" shape="1, 1, 1, 1" offset="67200" size="4" />
			<output>
				<port id="0" precision="FP32">
					<dim>1</dim>
					<dim>1</dim>
					<dim>1</dim>
					<dim>1</dim>
				</port>
			</output>
		</layer>
		<layer id="3" name="Multiply_418" type="Multiply" version="opset1">
			<data auto_broadcast="numpy" />
			<input>
				<port id="0" precision="FP32">
					<dim>1</dim>
					<dim>3</dim>
					<dim>640</dim>
					<dim>640</dim>
				</port>
				<port id="1" precision="FP32">
					<dim>1</dim>
					<dim>1</dim>
					<dim>1</dim>
					<dim>1</dim>
				</port>
			</input>
			<output>
				<port id="2" precision="FP32">
					<dim>1</dim>
					<dim>3</dim>
					<dim>640</dim>
					<dim>640</dim>
				</port>
			</output>
		</layer>
		<layer id="4" name="Constant_398" type="Const" version="opset1">
			<data element_type="f32" shape="" offset="67204" size="4" />
			<output>
				<port id="0" precision="FP32" />
			</output>
		</layer>
		<layer id="5" name="Range_394" type="Const" version="opset1">
			<data element_type="i64" shape="4" offset="67208" size="32" />
			<output>
				<port id="0" precision="I64">
					<dim>4</dim>
				</port>
			</output>
		</layer>
		<layer id="6" name="ReduceMax_396" type="ReduceMax" version="opset1">
			<data keep_dims="false" />
			<input>
				<port id="0" precision="FP32">
					<dim>1</dim>
					<dim>3</dim>
					<dim>640</dim>
					<dim>640</dim>
				</port>
				<port id="1" precision="I64">
					<dim>4</dim>
				</port>
			</input>
			<output>
				<port id="2" precision="FP32" />
			</output>
		</layer>
		<layer id="7" name="Maximum_399" type="Maximum" version="opset1">
			<data auto_broadcast="numpy" />
			<input>
				<port id="0" precision="FP32" />
				<port id="1" precision="FP32" />
			</input>
			<output>
				<port id="2" precision="FP32" />
			</output>
		</layer>
		<layer id="8" name="Constant_409" type="Const" version="opset1">
			<data element_type="f32" shape="" offset="67204" size="4" />
			<output>
				<port id="0" precision="FP32" />
			</output>
		</layer>
		<layer id="9" name="Range_405" type="Const" version="opset1">
			<data element_type="i64" shape="4" offset="67208" size="32" />
			<output>
				<port id="0" precision="I64">
					<dim>4</dim>
				</port>
			</output>
		</layer>
		<layer id="10" name="ReduceMin_407" type="ReduceMin" version="opset1">
			<data keep_dims="false" />
			<input>
				<port id="0" precision="FP32">
					<dim>1</dim>
					<dim>3</dim>
					<dim>640</dim>
					<dim>640</dim>
				</port>
				<port id="1" precision="I64">
					<dim>4</dim>
				</port>
			</input>
			<output>
				<port id="2" precision="FP32" />
			</output>
		</layer>
		<layer id="11" name="Minimum_410" type="Minimum" version="opset1">
			<data auto_broadcast="numpy" />
			<input>
				<port id="0" precision="FP32" />
				<port id="1" precision="FP32" />
			</input>
			<output>
				<port id="2" precision="FP32" />
			</output>
		</layer>
		<layer id="12" name="Subtract_411" type="Subtract" version="opset1">
			<data auto_broadcast="numpy" />
			<input>
				<port id="0" precision="FP32" />
				<port id="1" precision="FP32" />
			</input>
			<output>
				<port id="2" precision="FP32" />
			</output>
		</layer>
		<layer id="13" name="Divide_419" type="Divide" version="opset1">
			<data auto_broadcast="numpy" m_pythondiv="true" />
			<input>
				<port id="0" precision="FP32">
					<dim>1</dim>
					<dim>3</dim>
					<dim>640</dim>
					<dim>640</dim>
				</port>
				<port id="1" precision="FP32" />
			</input>
			<output>
				<port id="2" precision="FP32">
					<dim>1</dim>
					<dim>3</dim>
					<dim>640</dim>
					<dim>640</dim>
				</port>
			</output>
		</layer>
		<layer id="14" name="Round_420" type="Round" version="opset5">
			<data mode="half_to_even" />
			<input>
				<port id="0" precision="FP32">
					<dim>1</dim>
					<dim>3</dim>
					<dim>640</dim>
					<dim>640</dim>
				</port>
			</input>
			<output>
				<port id="1" precision="FP32">
					<dim>1</dim>
					<dim>3</dim>
					<dim>640</dim>
					<dim>640</dim>
				</port>
			</output>
		</layer>
		<layer id="15" name="Constant_386" type="Const" version="opset1">
			<data element_type="f32" shape="" offset="67204" size="4" />
			<output>
				<port id="0" precision="FP32" />
			</output>
		</layer>
		<layer id="16" name="Subtract_413" type="Subtract" version="opset1">
			<data auto_broadcast="numpy" />
			<input>
				<port id="0" precision="FP32" />
				<port id="1" precision="FP32" />
			</input>
			<output>
				<port id="2" precision="FP32" />
			</output>
		</layer>
		<layer id="17" name="Constant_6953" type="Const" version="opset1">
			<data element_type="f32" shape="" offset="67240" size="4" />
			<output>
				<port id="0" precision="FP32" />
			</output>
		</layer>
		<layer id="18" name="images_QuantizeLinear_images_scale" type="Multiply" version="opset1">
			<data auto_broadcast="numpy" />
			<input>
				<port id="0" precision="FP32" />
				<port id="1" precision="FP32" />
			</input>
			<output>
				<port id="2" precision="FP32" names="images_scale" />
			</output>
		</layer>
		<layer id="19" name="Divide_414" type="Divide" version="opset1">
			<data auto_broadcast="numpy" m_pythondiv="true" />
			<input>
				<port id="0" precision="FP32" />
				<port id="1" precision="FP32" />
			</input>
			<output>
				<port id="2" precision="FP32" />
			</output>
		</layer>
		<layer id="20" name="Round_415" type="Round" version="opset5">
			<data mode="half_to_even" />
			<input>
				<port id="0" precision="FP32" />
			</input>
			<output>
				<port id="1" precision="FP32" />
			</output>
		</layer>
		<layer id="21" name="Clamp_416" type="Clamp" version="opset1">
			<data min="0" max="255" />
			<input>
				<port id="0" precision="FP32" />
			</input>
			<output>
				<port id="1" precision="FP32" />
			</output>
		</layer>
		<layer id="22" name="images_QuantizeLinear_images_zero_point" type="Convert" version="opset1">
			<data destination_type="u8" />
			<input>
				<port id="0" precision="FP32" />
			</input>
			<output>
				<port id="1" precision="U8" names="images_zero_point" />
			</output>
		</layer>
		<layer id="23" name="Convert_421" type="Convert" version="opset1">
			<data destination_type="f32" />
			<input>
				<port id="0" precision="U8" />
			</input>
			<output>
				<port id="1" precision="FP32" />
			</output>
		</layer>
		<layer id="24" name="Add_422" type="Add" version="opset1">
			<data auto_broadcast="numpy" />
			<input>
				<port id="0" precision="FP32">
					<dim>1</dim>
					<dim>3</dim>
					<dim>640</dim>
					<dim>640</dim>
				</port>
				<port id="1" precision="FP32" />
			</input>
			<output>
				<port id="2" precision="FP32">
					<dim>1</dim>
					<dim>3</dim>
					<dim>640</dim>
					<dim>640</dim>
				</port>
			</output>
		</layer>
		<layer id="25" name="Clamp_423" type="Clamp" version="opset1">
			<data min="0" max="255" />
			<input>
				<port id="0" precision="FP32">
					<dim>1</dim>
					<dim>3</dim>
					<dim>640</dim>
					<dim>640</dim>
				</port>
			</input>
			<output>
				<port id="1" precision="FP32">
					<dim>1</dim>
					<dim>3</dim>
					<dim>640</dim>
					<dim>640</dim>
				</port>
			</output>
		</layer>
		<layer id="26" name="images_QuantizeLinear_images_quantized" type="Convert" version="opset1">
			<data destination_type="u8" />
			<input>
				<port id="0" precision="FP32">
					<dim>1</dim>
					<dim>3</dim>
					<dim>640</dim>
					<dim>640</dim>
				</port>
			</input>
			<output>
				<port id="1" precision="U8" names="images_quantized">
					<dim>1</dim>
					<dim>3</dim>
					<dim>640</dim>
					<dim>640</dim>
				</port>
			</output>
		</layer>
		<layer id="27" name="Convert_642" type="Convert" version="opset1">
			<data destination_type="i32" />
			<input>
				<port id="0" precision="U8">
					<dim>1</dim>
					<dim>3</dim>
					<dim>640</dim>
					<dim>640</dim>
				</port>
			</input>
			<output>
				<port id="1" precision="I32">
					<dim>1</dim>
					<dim>3</dim>
					<dim>640</dim>
					<dim>640</dim>
				</port>
			</output>
		</layer>
		<layer id="28" name="Convert_644" type="Convert" version="opset1">
			<data destination_type="i32" />
			<input>
				<port id="0" precision="U8" />
			</input>
			<output>
				<port id="1" precision="I32" />
			</output>
		</layer>
		<layer id="29" name="Subtract_646" type="Subtract" version="opset1">
			<data auto_broadcast="numpy" />
			<input>
				<port id="0" precision="I32">
					<dim>1</dim>
					<dim>3</dim>
					<dim>640</dim>
					<dim>640</dim>
				</port>
				<port id="1" precision="I32" />
			</input>
			<output>
				<port id="2" precision="I32">
					<dim>1</dim>
					<dim>3</dim>
					<dim>640</dim>
					<dim>640</dim>
				</port>
			</output>
		</layer>
		<layer id="30" name="Subtract_647" type="Const" version="opset1">
			<data element_type="i32" shape="16, 3, 3, 3" offset="67244" size="1728" />
			<output>
				<port id="0" precision="I32">
					<dim>16</dim>
					<dim>3</dim>
					<dim>3</dim>
					<dim>3</dim>
				</port>
			</output>
		</layer>
		<layer id="31" name="/model.0/conv/Conv_quant" type="Convolution" version="opset1">
			<data strides="2, 2" dilations="1, 1" pads_begin="1, 1" pads_end="1, 1" auto_pad="explicit" />
			<input>
				<port id="0" precision="I32">
					<dim>1</dim>
					<dim>3</dim>
					<dim>640</dim>
					<dim>640</dim>
				</port>
				<port id="1" precision="I32">
					<dim>16</dim>
					<dim>3</dim>
					<dim>3</dim>
					<dim>3</dim>
				</port>
			</input>
			<output>
				<port id="2" precision="I32" names="/model.0/conv/Conv_output_0_output_quantized">
					<dim>1</dim>
					<dim>16</dim>
					<dim>320</dim>
					<dim>320</dim>
				</port>
			</output>
		</layer>
		<layer id="32" name="/model.0/conv/Conv_output_0_output_quantized_cast" type="Convert" version="opset1">
			<data destination_type="f32" />
			<input>
				<port id="0" precision="I32">
					<dim>1</dim>
					<dim>16</dim>
					<dim>320</dim>
					<dim>320</dim>
				</port>
			</input>
			<output>
				<port id="1" precision="FP32" names="/model.0/conv/Conv_output_0_output_quantized_cast_output">
					<dim>1</dim>
					<dim>16</dim>
					<dim>320</dim>
					<dim>320</dim>
				</port>
			</output>
		</layer>
		<layer id="33" name="model.0.conv.weight_scale" type="Const" version="opset1">
			<data element_type="f32" shape="" offset="68972" size="4" />
			<output>
				<port id="0" precision="FP32" names="model.0.conv.weight_scale" />
			</output>
		</layer>
		<layer id="34" name="/model.0/conv/Conv_quant_scales_mul" type="Multiply" version="opset1">
			<data auto_broadcast="numpy" />
			<input>
				<port id="0" precision="FP32" />
				<port id="1" precision="FP32" />
			</input>
			<output>
				<port id="2" precision="FP32" names="/model.0/conv/Conv_quant_scales_mul:0" />
			</output>
		</layer>
		<layer id="35" name="/model.0/conv/Conv_quant_output_scale_mul" type="Multiply" version="opset1">
			<data auto_broadcast="numpy" />
			<input>
				<port id="0" precision="FP32">
					<dim>1</dim>
					<dim>16</dim>
					<dim>320</dim>
					<dim>320</dim>
				</port>
				<port id="1" precision="FP32" />
			</input>
			<output>
				<port id="2" precision="FP32" names="/model.0/conv/Conv_output_0quant_scaled_output">
					<dim>1</dim>
					<dim>16</dim>
					<dim>320</dim>
					<dim>320</dim>
				</port>
			</output>
		</layer>
		<layer id="36" name="/model.0/conv/Conv_output_0_bias_reshape_output" type="Const" version="opset1">
			<data element_type="f32" shape="1, 16, 1, 1" offset="68976" size="64" />
			<output>
				<port id="0" precision="FP32" names="/model.0/conv/Conv_output_0_bias_reshape_output">
					<dim>1</dim>
					<dim>16</dim>
					<dim>1</dim>
					<dim>1</dim>
				</port>
			</output>
		</layer>
		<layer id="37" name="/model.0/conv/Conv_output_0_bias_add" type="Add" version="opset1">
			<data auto_broadcast="numpy" />
			<input>
				<port id="0" precision="FP32">
					<dim>1</dim>
					<dim>16</dim>
					<dim>320</dim>
					<dim>320</dim>
				</port>
				<port id="1" precision="FP32">
					<dim>1</dim>
					<dim>16</dim>
					<dim>1</dim>
					<dim>1</dim>
				</port>
			</input>
			<output>
				<port id="2" precision="FP32" names="/model.0/conv/Conv_output_0">
					<dim>1</dim>
					<dim>16</dim>
					<dim>320</dim>
					<dim>320</dim>
				</port>
			</output>
		</layer>
		<layer id="38" name="/model.0/act/Mul" type="Swish" version="opset4">
			<input>
				<port id="0" precision="FP32">
					<dim>1</dim>
					<dim>16</dim>
					<dim>320</dim>
					<dim>320</dim>
				</port>
			</input>
			<output>
				<port id="1" precision="FP32" names="/model.0/act/Mul_output_0">
					<dim>1</dim>
					<dim>16</dim>
					<dim>320</dim>
					<dim>320</dim>
				</port>
			</output>
		</layer>
		<layer id="39" name="Constant_7250" type="Const" version="opset1">
			<data element_type="f32" shape="1, 1, 1, 1" offset="67200" size="4" />
			<output>
				<port id="0" precision="FP32">
					<dim>1</dim>
					<dim>1</dim>
					<dim>1</dim>
					<dim>1</dim>
				</port>
			</output>
		</layer>
		<layer id="40" name="Multiply_686" type="Multiply" version="opset1">
			<data auto_broadcast="numpy" />
			<input>
				<port id="0" precision="FP32">
					<dim>1</dim>
					<dim>16</dim>
					<dim>320</dim>
					<dim>320</dim>
				</port>
				<port id="1" precision="FP32">
					<dim>1</dim>
					<dim>1</dim>
					<dim>1</dim>
					<dim>1</dim>
				</port>
			</input>
			<output>
				<port id="2" precision="FP32">
					<dim>1</dim>
					<dim>16</dim>
					<dim>320</dim>
					<dim>320</dim>
				</port>
			</output>
		</layer>
		<layer id="41" name="Constant_666" type="Const" version="opset1">
			<data element_type="f32" shape="" offset="67204" size="4" />
			<output>
				<port id="0" precision="FP32" />
			</output>
		</layer>
		<layer id="42" name="Range_662" type="Const" version="opset1">
			<data element_type="i64" shape="4" offset="67208" size="32" />
			<output>
				<port id="0" precision="I64">
					<dim>4</dim>
				</port>
			</output>
		</layer>
		<layer id="43" name="ReduceMax_664" type="ReduceMax" version="opset1">
			<data keep_dims="false" />
			<input>
				<port id="0" precision="FP32">
					<dim>1</dim>
					<dim>16</dim>
					<dim>320</dim>
					<dim>320</dim>
				</port>
				<port id="1" precision="I64">
					<dim>4</dim>
				</port>
			</input>
			<output>
				<port id="2" precision="FP32" />
			</output>
		</layer>
		<layer id="44" name="Maximum_667" type="Maximum" version="opset1">
			<data auto_broadcast="numpy" />
			<input>
				<port id="0" precision="FP32" />
				<port id="1" precision="FP32" />
			</input>
			<output>
				<port id="2" precision="FP32" />
			</output>
		</layer>
		<layer id="45" name="Constant_677" type="Const" version="opset1">
			<data element_type="f32" shape="" offset="67204" size="4" />
			<output>
				<port id="0" precision="FP32" />
			</output>
		</layer>
		<layer id="46" name="Range_673" type="Const" version="opset1">
			<data element_type="i64" shape="4" offset="67208" size="32" />
			<output>
				<port id="0" precision="I64">
					<dim>4</dim>
				</port>
			</output>
		</layer>
		<layer id="47" name="ReduceMin_675" type="ReduceMin" version="opset1">
			<data keep_dims="false" />
			<input>
				<port id="0" precision="FP32">
					<dim>1</dim>
					<dim>16</dim>
					<dim>320</dim>
					<dim>320</dim>
				</port>
				<port id="1" precision="I64">
					<dim>4</dim>
				</port>
			</input>
			<output>
				<port id="2" precision="FP32" />
			</output>
		</layer>
		<layer id="48" name="Minimum_678" type="Minimum" version="opset1">
			<data auto_broadcast="numpy" />
			<input>
				<port id="0" precision="FP32" />
				<port id="1" precision="FP32" />
			</input>
			<output>
				<port id="2" precision="FP32" />
			</output>
		</layer>
		<layer id="49" name="Subtract_679" type="Subtract" version="opset1">
			<data auto_broadcast="numpy" />
			<input>
				<port id="0" precision="FP32" />
				<port id="1" precision="FP32" />
			</input>
			<output>
				<port id="2" precision="FP32" />
			</output>
		</layer>
		<layer id="50" name="Divide_687" type="Divide" version="opset1">
			<data auto_broadcast="numpy" m_pythondiv="true" />
			<input>
				<port id="0" precision="FP32">
					<dim>1</dim>
					<dim>16</dim>
					<dim>320</dim>
					<dim>320</dim>
				</port>
				<port id="1" precision="FP32" />
			</input>
			<output>
				<port id="2" precision="FP32">
					<dim>1</dim>
					<dim>16</dim>
					<dim>320</dim>
					<dim>320</dim>
				</port>
			</output>
		</layer>
		<layer id="51" name="Round_688" type="Round" version="opset5">
			<data mode="half_to_even" />
			<input>
				<port id="0" precision="FP32">
					<dim>1</dim>
					<dim>16</dim>
					<dim>320</dim>
					<dim>320</dim>
				</port>
			</input>
			<output>
				<port id="1" precision="FP32">
					<dim>1</dim>
					<dim>16</dim>
					<dim>320</dim>
					<dim>320</dim>
				</port>
			</output>
		</layer>
		<layer id="52" name="Constant_654" type="Const" version="opset1">
			<data element_type="f32" shape="" offset="67204" size="4" />
			<output>
				<port id="0" precision="FP32" />
			</output>
		</layer>
		<layer id="53" name="Subtract_681" type="Subtract" version="opset1">
			<data auto_broadcast="numpy" />
			<input>
				<port id="0" precision="FP32" />
				<port id="1" precision="FP32" />
			</input>
			<output>
				<port id="2" precision="FP32" />
			</output>
		</layer>
		<layer id="54" name="Constant_6957" type="Const" version="opset1">
			<data element_type="f32" shape="" offset="67240" size="4" />
			<output>
				<port id="0" precision="FP32" />
			</output>
		</layer>
		<layer id="55" name="/model.0/act/Mul_output_0_QuantizeLinear_/model.0/act/Mul_output_0_scale" type="Multiply" version="opset1">
			<data auto_broadcast="numpy" />
			<input>
				<port id="0" precision="FP32" />
				<port id="1" precision="FP32" />
			</input>
			<output>
				<port id="2" precision="FP32" names="/model.0/act/Mul_output_0_scale" />
			</output>
		</layer>
		<layer id="56" name="Divide_682" type="Divide" version="opset1">
			<data auto_broadcast="numpy" m_pythondiv="true" />
			<input>
				<port id="0" precision="FP32" />
				<port id="1" precision="FP32" />
			</input>
			<output>
				<port id="2" precision="FP32" />
			</output>
		</layer>
		<layer id="57" name="Round_683" type="Round" version="opset5">
			<data mode="half_to_even" />
			<input>
				<port id="0" precision="FP32" />
			</input>
			<output>
				<port id="1" precision="FP32" />
			</output>
		</layer>
		<layer id="58" name="Clamp_684" type="Clamp" version="opset1">
			<data min="0" max="255" />
			<input>
				<port id="0" precision="FP32" />
			</input>
			<output>
				<port id="1" precision="FP32" />
			</output>
		</layer>
		<layer id="59" name="/model.0/act/Mul_output_0_QuantizeLinear_/model.0/act/Mul_output_0_zero_point" type="Convert" version="opset1">
			<data destination_type="u8" />
			<input>
				<port id="0" precision="FP32" />
			</input>
			<output>
				<port id="1" precision="U8" names="/model.0/act/Mul_output_0_zero_point" />
			</output>
		</layer>
		<layer id="60" name="Convert_689" type="Convert" version="opset1">
			<data destination_type="f32" />
			<input>
				<port id="0" precision="U8" />
			</input>
			<output>
				<port id="1" precision="FP32" />
			</output>
		</layer>
		<layer id="61" name="Add_690" type="Add" version="opset1">
			<data auto_broadcast="numpy" />
			<input>
				<port id="0" precision="FP32">
					<dim>1</dim>
					<dim>16</dim>
					<dim>320</dim>
					<dim>320</dim>
				</port>
				<port id="1" precision="FP32" />
			</input>
			<output>
				<port id="2" precision="FP32">
					<dim>1</dim>
					<dim>16</dim>
					<dim>320</dim>
					<dim>320</dim>
				</port>
			</output>
		</layer>
		<layer id="62" name="Clamp_691" type="Clamp" version="opset1">
			<data min="0" max="255" />
			<input>
				<port id="0" precision="FP32">
					<dim>1</dim>
					<dim>16</dim>
					<dim>320</dim>
					<dim>320</dim>
				</port>
			</input>
			<output>
				<port id="1" precision="FP32">
					<dim>1</dim>
					<dim>16</dim>
					<dim>320</dim>
					<dim>320</dim>
				</port>
			</output>
		</layer>
		<layer id="63" name="/model.0/act/Mul_output_0_QuantizeLinear_/model.0/act/Mul_output_0_quantized" type="Convert" version="opset1">
			<data destination_type="u8" />
			<input>
				<port id="0" precision="FP32">
					<dim>1</dim>
					<dim>16</dim>
					<dim>320</dim>
					<dim>320</dim>
				</port>
			</input>
			<output>
				<port id="1" precision="U8" names="/model.0/act/Mul_output_0_quantized">
					<dim>1</dim>
					<dim>16</dim>
					<dim>320</dim>
					<dim>320</dim>
				</port>
			</output>
		</layer>
		<layer id="64" name="Convert_694" type="Convert" version="opset1">
			<data destination_type="i32" />
			<input>
				<port id="0" precision="U8">
					<dim>1</dim>
					<dim>16</dim>
					<dim>320</dim>
					<dim>320</dim>
				</port>
			</input>
			<output>
				<port id="1" precision="I32">
					<dim>1</dim>
					<dim>16</dim>
					<dim>320</dim>
					<dim>320</dim>
				</port>
			</output>
		</layer>
		<layer id="65" name="Convert_696" type="Convert" version="opset1">
			<data destination_type="i32" />
			<input>
				<port id="0" precision="U8" />
			</input>
			<output>
				<port id="1" precision="I32" />
			</output>
		</layer>
		<layer id="66" name="Subtract_698" type="Subtract" version="opset1">
			<data auto_broadcast="numpy" />
			<input>
				<port id="0" precision="I32">
					<dim>1</dim>
					<dim>16</dim>
					<dim>320</dim>
					<dim>320</dim>
				</port>
				<port id="1" precision="I32" />
			</input>
			<output>
				<port id="2" precision="I32">
					<dim>1</dim>
					<dim>16</dim>
					<dim>320</dim>
					<dim>320</dim>
				</port>
			</output>
		</layer>
		<layer id="67" name="Subtract_699" type="Const" version="opset1">
			<data element_type="i32" shape="32, 16, 3, 3" offset="69040" size="18432" />
			<output>
				<port id="0" precision="I32">
					<dim>32</dim>
					<dim>16</dim>
					<dim>3</dim>
					<dim>3</dim>
				</port>
			</output>
		</layer>
		<layer id="68" name="/model.1/conv/Conv_quant" type="Convolution" version="opset1">
			<data strides="2, 2" dilations="1, 1" pads_begin="1, 1" pads_end="1, 1" auto_pad="explicit" />
			<input>
				<port id="0" precision="I32">
					<dim>1</dim>
					<dim>16</dim>
					<dim>320</dim>
					<dim>320</dim>
				</port>
				<port id="1" precision="I32">
					<dim>32</dim>
					<dim>16</dim>
					<dim>3</dim>
					<dim>3</dim>
				</port>
			</input>
			<output>
				<port id="2" precision="I32" names="/model.1/conv/Conv_output_0_output_quantized">
					<dim>1</dim>
					<dim>32</dim>
					<dim>160</dim>
					<dim>160</dim>
				</port>
			</output>
		</layer>
		<layer id="69" name="/model.1/conv/Conv_output_0_output_quantized_cast" type="Convert" version="opset1">
			<data destination_type="f32" />
			<input>
				<port id="0" precision="I32">
					<dim>1</dim>
					<dim>32</dim>
					<dim>160</dim>
					<dim>160</dim>
				</port>
			</input>
			<output>
				<port id="1" precision="FP32" names="/model.1/conv/Conv_output_0_output_quantized_cast_output">
					<dim>1</dim>
					<dim>32</dim>
					<dim>160</dim>
					<dim>160</dim>
				</port>
			</output>
		</layer>
		<layer id="70" name="model.1.conv.weight_scale" type="Const" version="opset1">
			<data element_type="f32" shape="" offset="87472" size="4" />
			<output>
				<port id="0" precision="FP32" names="model.1.conv.weight_scale" />
			</output>
		</layer>
		<layer id="71" name="/model.1/conv/Conv_quant_scales_mul" type="Multiply" version="opset1">
			<data auto_broadcast="numpy" />
			<input>
				<port id="0" precision="FP32" />
				<port id="1" precision="FP32" />
			</input>
			<output>
				<port id="2" precision="FP32" names="/model.1/conv/Conv_quant_scales_mul:0" />
			</output>
		</layer>
		<layer id="72" name="/model.1/conv/Conv_quant_output_scale_mul" type="Multiply" version="opset1">
			<data auto_broadcast="numpy" />
			<input>
				<port id="0" precision="FP32">
					<dim>1</dim>
					<dim>32</dim>
					<dim>160</dim>
					<dim>160</dim>
				</port>
				<port id="1" precision="FP32" />
			</input>
			<output>
				<port id="2" precision="FP32" names="/model.1/conv/Conv_output_0quant_scaled_output">
					<dim>1</dim>
					<dim>32</dim>
					<dim>160</dim>
					<dim>160</dim>
				</port>
			</output>
		</layer>
		<layer id="73" name="/model.1/conv/Conv_output_0_bias_reshape_output" type="Const" version="opset1">
			<data element_type="f32" shape="1, 32, 1, 1" offset="87476" size="128" />
			<output>
				<port id="0" precision="FP32" names="/model.1/conv/Conv_output_0_bias_reshape_output">
					<dim>1</dim>
					<dim>32</dim>
					<dim>1</dim>
					<dim>1</dim>
				</port>
			</output>
		</layer>
		<layer id="74" name="/model.1/conv/Conv_output_0_bias_add" type="Add" version="opset1">
			<data auto_broadcast="numpy" />
			<input>
				<port id="0" precision="FP32">
					<dim>1</dim>
					<dim>32</dim>
					<dim>160</dim>
					<dim>160</dim>
				</port>
				<port id="1" precision="FP32">
					<dim>1</dim>
					<dim>32</dim>
					<dim>1</dim>
					<dim>1</dim>
				</port>
			</input>
			<output>
				<port id="2" precision="FP32" names="/model.1/conv/Conv_output_0">
					<dim>1</dim>
					<dim>32</dim>
					<dim>160</dim>
					<dim>160</dim>
				</port>
			</output>
		</layer>
		<layer id="75" name="/model.1/act/Mul" type="Swish" version="opset4">
			<input>
				<port id="0" precision="FP32">
					<dim>1</dim>
					<dim>32</dim>
					<dim>160</dim>
					<dim>160</dim>
				</port>
			</input>
			<output>
				<port id="1" precision="FP32" names="/model.1/act/Mul_output_0">
					<dim>1</dim>
					<dim>32</dim>
					<dim>160</dim>
					<dim>160</dim>
				</port>
			</output>
		</layer>
		<layer id="76" name="Constant_7251" type="Const" version="opset1">
			<data element_type="f32" shape="1, 1, 1, 1" offset="67200" size="4" />
			<output>
				<port id="0" precision="FP32">
					<dim>1</dim>
					<dim>1</dim>
					<dim>1</dim>
					<dim>1</dim>
				</port>
			</output>
		</layer>
		<layer id="77" name="Multiply_738" type="Multiply" version="opset1">
			<data auto_broadcast="numpy" />
			<input>
				<port id="0" precision="FP32">
					<dim>1</dim>
					<dim>32</dim>
					<dim>160</dim>
					<dim>160</dim>
				</port>
				<port id="1" precision="FP32">
					<dim>1</dim>
					<dim>1</dim>
					<dim>1</dim>
					<dim>1</dim>
				</port>
			</input>
			<output>
				<port id="2" precision="FP32">
					<dim>1</dim>
					<dim>32</dim>
					<dim>160</dim>
					<dim>160</dim>
				</port>
			</output>
		</layer>
		<layer id="78" name="Constant_718" type="Const" version="opset1">
			<data element_type="f32" shape="" offset="67204" size="4" />
			<output>
				<port id="0" precision="FP32" />
			</output>
		</layer>
		<layer id="79" name="Range_714" type="Const" version="opset1">
			<data element_type="i64" shape="4" offset="67208" size="32" />
			<output>
				<port id="0" precision="I64">
					<dim>4</dim>
				</port>
			</output>
		</layer>
		<layer id="80" name="ReduceMax_716" type="ReduceMax" version="opset1">
			<data keep_dims="false" />
			<input>
				<port id="0" precision="FP32">
					<dim>1</dim>
					<dim>32</dim>
					<dim>160</dim>
					<dim>160</dim>
				</port>
				<port id="1" precision="I64">
					<dim>4</dim>
				</port>
			</input>
			<output>
				<port id="2" precision="FP32" />
			</output>
		</layer>
		<layer id="81" name="Maximum_719" type="Maximum" version="opset1">
			<data auto_broadcast="numpy" />
			<input>
				<port id="0" precision="FP32" />
				<port id="1" precision="FP32" />
			</input>
			<output>
				<port id="2" precision="FP32" />
			</output>
		</layer>
		<layer id="82" name="Constant_729" type="Const" version="opset1">
			<data element_type="f32" shape="" offset="67204" size="4" />
			<output>
				<port id="0" precision="FP32" />
			</output>
		</layer>
		<layer id="83" name="Range_725" type="Const" version="opset1">
			<data element_type="i64" shape="4" offset="67208" size="32" />
			<output>
				<port id="0" precision="I64">
					<dim>4</dim>
				</port>
			</output>
		</layer>
		<layer id="84" name="ReduceMin_727" type="ReduceMin" version="opset1">
			<data keep_dims="false" />
			<input>
				<port id="0" precision="FP32">
					<dim>1</dim>
					<dim>32</dim>
					<dim>160</dim>
					<dim>160</dim>
				</port>
				<port id="1" precision="I64">
					<dim>4</dim>
				</port>
			</input>
			<output>
				<port id="2" precision="FP32" />
			</output>
		</layer>
		<layer id="85" name="Minimum_730" type="Minimum" version="opset1">
			<data auto_broadcast="numpy" />
			<input>
				<port id="0" precision="FP32" />
				<port id="1" precision="FP32" />
			</input>
			<output>
				<port id="2" precision="FP32" />
			</output>
		</layer>
		<layer id="86" name="Subtract_731" type="Subtract" version="opset1">
			<data auto_broadcast="numpy" />
			<input>
				<port id="0" precision="FP32" />
				<port id="1" precision="FP32" />
			</input>
			<output>
				<port id="2" precision="FP32" />
			</output>
		</layer>
		<layer id="87" name="Divide_739" type="Divide" version="opset1">
			<data auto_broadcast="numpy" m_pythondiv="true" />
			<input>
				<port id="0" precision="FP32">
					<dim>1</dim>
					<dim>32</dim>
					<dim>160</dim>
					<dim>160</dim>
				</port>
				<port id="1" precision="FP32" />
			</input>
			<output>
				<port id="2" precision="FP32">
					<dim>1</dim>
					<dim>32</dim>
					<dim>160</dim>
					<dim>160</dim>
				</port>
			</output>
		</layer>
		<layer id="88" name="Round_740" type="Round" version="opset5">
			<data mode="half_to_even" />
			<input>
				<port id="0" precision="FP32">
					<dim>1</dim>
					<dim>32</dim>
					<dim>160</dim>
					<dim>160</dim>
				</port>
			</input>
			<output>
				<port id="1" precision="FP32">
					<dim>1</dim>
					<dim>32</dim>
					<dim>160</dim>
					<dim>160</dim>
				</port>
			</output>
		</layer>
		<layer id="89" name="Constant_706" type="Const" version="opset1">
			<data element_type="f32" shape="" offset="67204" size="4" />
			<output>
				<port id="0" precision="FP32" />
			</output>
		</layer>
		<layer id="90" name="Subtract_733" type="Subtract" version="opset1">
			<data auto_broadcast="numpy" />
			<input>
				<port id="0" precision="FP32" />
				<port id="1" precision="FP32" />
			</input>
			<output>
				<port id="2" precision="FP32" />
			</output>
		</layer>
		<layer id="91" name="Constant_6961" type="Const" version="opset1">
			<data element_type="f32" shape="" offset="67240" size="4" />
			<output>
				<port id="0" precision="FP32" />
			</output>
		</layer>
		<layer id="92" name="/model.1/act/Mul_output_0_QuantizeLinear_/model.1/act/Mul_output_0_scale" type="Multiply" version="opset1">
			<data auto_broadcast="numpy" />
			<input>
				<port id="0" precision="FP32" />
				<port id="1" precision="FP32" />
			</input>
			<output>
				<port id="2" precision="FP32" names="/model.1/act/Mul_output_0_scale" />
			</output>
		</layer>
		<layer id="93" name="Divide_734" type="Divide" version="opset1">
			<data auto_broadcast="numpy" m_pythondiv="true" />
			<input>
				<port id="0" precision="FP32" />
				<port id="1" precision="FP32" />
			</input>
			<output>
				<port id="2" precision="FP32" />
			</output>
		</layer>
		<layer id="94" name="Round_735" type="Round" version="opset5">
			<data mode="half_to_even" />
			<input>
				<port id="0" precision="FP32" />
			</input>
			<output>
				<port id="1" precision="FP32" />
			</output>
		</layer>
		<layer id="95" name="Clamp_736" type="Clamp" version="opset1">
			<data min="0" max="255" />
			<input>
				<port id="0" precision="FP32" />
			</input>
			<output>
				<port id="1" precision="FP32" />
			</output>
		</layer>
		<layer id="96" name="/model.1/act/Mul_output_0_QuantizeLinear_/model.1/act/Mul_output_0_zero_point" type="Convert" version="opset1">
			<data destination_type="u8" />
			<input>
				<port id="0" precision="FP32" />
			</input>
			<output>
				<port id="1" precision="U8" names="/model.1/act/Mul_output_0_zero_point" />
			</output>
		</layer>
		<layer id="97" name="Convert_741" type="Convert" version="opset1">
			<data destination_type="f32" />
			<input>
				<port id="0" precision="U8" />
			</input>
			<output>
				<port id="1" precision="FP32" />
			</output>
		</layer>
		<layer id="98" name="Add_742" type="Add" version="opset1">
			<data auto_broadcast="numpy" />
			<input>
				<port id="0" precision="FP32">
					<dim>1</dim>
					<dim>32</dim>
					<dim>160</dim>
					<dim>160</dim>
				</port>
				<port id="1" precision="FP32" />
			</input>
			<output>
				<port id="2" precision="FP32">
					<dim>1</dim>
					<dim>32</dim>
					<dim>160</dim>
					<dim>160</dim>
				</port>
			</output>
		</layer>
		<layer id="99" name="Clamp_743" type="Clamp" version="opset1">
			<data min="0" max="255" />
			<input>
				<port id="0" precision="FP32">
					<dim>1</dim>
					<dim>32</dim>
					<dim>160</dim>
					<dim>160</dim>
				</port>
			</input>
			<output>
				<port id="1" precision="FP32">
					<dim>1</dim>
					<dim>32</dim>
					<dim>160</dim>
					<dim>160</dim>
				</port>
			</output>
		</layer>
		<layer id="100" name="/model.1/act/Mul_output_0_QuantizeLinear_/model.1/act/Mul_output_0_quantized" type="Convert" version="opset1">
			<data destination_type="u8" />
			<input>
				<port id="0" precision="FP32">
					<dim>1</dim>
					<dim>32</dim>
					<dim>160</dim>
					<dim>160</dim>
				</port>
			</input>
			<output>
				<port id="1" precision="U8" names="/model.1/act/Mul_output_0_quantized">
					<dim>1</dim>
					<dim>32</dim>
					<dim>160</dim>
					<dim>160</dim>
				</port>
			</output>
		</layer>
		<layer id="101" name="Convert_746" type="Convert" version="opset1">
			<data destination_type="i32" />
			<input>
				<port id="0" precision="U8">
					<dim>1</dim>
					<dim>32</dim>
					<dim>160</dim>
					<dim>160</dim>
				</port>
			</input>
			<output>
				<port id="1" precision="I32">
					<dim>1</dim>
					<dim>32</dim>
					<dim>160</dim>
					<dim>160</dim>
				</port>
			</output>
		</layer>
		<layer id="102" name="Convert_748" type="Convert" version="opset1">
			<data destination_type="i32" />
			<input>
				<port id="0" precision="U8" />
			</input>
			<output>
				<port id="1" precision="I32" />
			</output>
		</layer>
		<layer id="103" name="Subtract_750" type="Subtract" version="opset1">
			<data auto_broadcast="numpy" />
			<input>
				<port id="0" precision="I32">
					<dim>1</dim>
					<dim>32</dim>
					<dim>160</dim>
					<dim>160</dim>
				</port>
				<port id="1" precision="I32" />
			</input>
			<output>
				<port id="2" precision="I32">
					<dim>1</dim>
					<dim>32</dim>
					<dim>160</dim>
					<dim>160</dim>
				</port>
			</output>
		</layer>
		<layer id="104" name="Subtract_751" type="Const" version="opset1">
			<data element_type="i32" shape="32, 32, 1, 1" offset="87604" size="4096" />
			<output>
				<port id="0" precision="I32">
					<dim>32</dim>
					<dim>32</dim>
					<dim>1</dim>
					<dim>1</dim>
				</port>
			</output>
		</layer>
		<layer id="105" name="/model.2/cv1/conv/Conv_quant" type="Convolution" version="opset1">
			<data strides="1, 1" dilations="1, 1" pads_begin="0, 0" pads_end="0, 0" auto_pad="explicit" />
			<input>
				<port id="0" precision="I32">
					<dim>1</dim>
					<dim>32</dim>
					<dim>160</dim>
					<dim>160</dim>
				</port>
				<port id="1" precision="I32">
					<dim>32</dim>
					<dim>32</dim>
					<dim>1</dim>
					<dim>1</dim>
				</port>
			</input>
			<output>
				<port id="2" precision="I32" names="/model.2/cv1/conv/Conv_output_0_output_quantized">
					<dim>1</dim>
					<dim>32</dim>
					<dim>160</dim>
					<dim>160</dim>
				</port>
			</output>
		</layer>
		<layer id="106" name="/model.2/cv1/conv/Conv_output_0_output_quantized_cast" type="Convert" version="opset1">
			<data destination_type="f32" />
			<input>
				<port id="0" precision="I32">
					<dim>1</dim>
					<dim>32</dim>
					<dim>160</dim>
					<dim>160</dim>
				</port>
			</input>
			<output>
				<port id="1" precision="FP32" names="/model.2/cv1/conv/Conv_output_0_output_quantized_cast_output">
					<dim>1</dim>
					<dim>32</dim>
					<dim>160</dim>
					<dim>160</dim>
				</port>
			</output>
		</layer>
		<layer id="107" name="model.2.cv1.conv.weight_scale" type="Const" version="opset1">
			<data element_type="f32" shape="" offset="91700" size="4" />
			<output>
				<port id="0" precision="FP32" names="model.2.cv1.conv.weight_scale" />
			</output>
		</layer>
		<layer id="108" name="/model.2/cv1/conv/Conv_quant_scales_mul" type="Multiply" version="opset1">
			<data auto_broadcast="numpy" />
			<input>
				<port id="0" precision="FP32" />
				<port id="1" precision="FP32" />
			</input>
			<output>
				<port id="2" precision="FP32" names="/model.2/cv1/conv/Conv_quant_scales_mul:0" />
			</output>
		</layer>
		<layer id="109" name="/model.2/cv1/conv/Conv_quant_output_scale_mul" type="Multiply" version="opset1">
			<data auto_broadcast="numpy" />
			<input>
				<port id="0" precision="FP32">
					<dim>1</dim>
					<dim>32</dim>
					<dim>160</dim>
					<dim>160</dim>
				</port>
				<port id="1" precision="FP32" />
			</input>
			<output>
				<port id="2" precision="FP32" names="/model.2/cv1/conv/Conv_output_0quant_scaled_output">
					<dim>1</dim>
					<dim>32</dim>
					<dim>160</dim>
					<dim>160</dim>
				</port>
			</output>
		</layer>
		<layer id="110" name="/model.2/cv1/conv/Conv_output_0_bias_reshape_output" type="Const" version="opset1">
			<data element_type="f32" shape="1, 32, 1, 1" offset="91704" size="128" />
			<output>
				<port id="0" precision="FP32" names="/model.2/cv1/conv/Conv_output_0_bias_reshape_output">
					<dim>1</dim>
					<dim>32</dim>
					<dim>1</dim>
					<dim>1</dim>
				</port>
			</output>
		</layer>
		<layer id="111" name="/model.2/cv1/conv/Conv_output_0_bias_add" type="Add" version="opset1">
			<data auto_broadcast="numpy" />
			<input>
				<port id="0" precision="FP32">
					<dim>1</dim>
					<dim>32</dim>
					<dim>160</dim>
					<dim>160</dim>
				</port>
				<port id="1" precision="FP32">
					<dim>1</dim>
					<dim>32</dim>
					<dim>1</dim>
					<dim>1</dim>
				</port>
			</input>
			<output>
				<port id="2" precision="FP32" names="/model.2/cv1/conv/Conv_output_0">
					<dim>1</dim>
					<dim>32</dim>
					<dim>160</dim>
					<dim>160</dim>
				</port>
			</output>
		</layer>
		<layer id="112" name="/model.2/cv1/act/Mul" type="Swish" version="opset4">
			<input>
				<port id="0" precision="FP32">
					<dim>1</dim>
					<dim>32</dim>
					<dim>160</dim>
					<dim>160</dim>
				</port>
			</input>
			<output>
				<port id="1" precision="FP32" names="/model.2/cv1/act/Mul_output_0">
					<dim>1</dim>
					<dim>32</dim>
					<dim>160</dim>
					<dim>160</dim>
				</port>
			</output>
		</layer>
		<layer id="113" name="Constant_758" type="Const" version="opset1">
			<data element_type="i64" shape="" offset="91832" size="8" />
			<output>
				<port id="0" precision="I64" />
			</output>
		</layer>
		<layer id="114" name="ortshared_7_1_2_2_token_186" type="Const" version="opset1">
			<data element_type="i64" shape="2" offset="91840" size="16" />
			<output>
				<port id="0" precision="I64" names="ortshared_7_1_2_2_token_186">
					<dim>2</dim>
				</port>
			</output>
		</layer>
		<layer id="115" name="/model.2/Split" type="VariadicSplit" version="opset1">
			<input>
				<port id="0" precision="FP32">
					<dim>1</dim>
					<dim>32</dim>
					<dim>160</dim>
					<dim>160</dim>
				</port>
				<port id="1" precision="I64" />
				<port id="2" precision="I64">
					<dim>2</dim>
				</port>
			</input>
			<output>
				<port id="3" precision="FP32" names="/model.2/Split_output_0">
					<dim>1</dim>
					<dim>16</dim>
					<dim>160</dim>
					<dim>160</dim>
				</port>
				<port id="4" precision="FP32" names="/model.2/Split_output_1">
					<dim>1</dim>
					<dim>16</dim>
					<dim>160</dim>
					<dim>160</dim>
				</port>
			</output>
		</layer>
		<layer id="116" name="Constant_7252" type="Const" version="opset1">
			<data element_type="f32" shape="1, 1, 1, 1" offset="67200" size="4" />
			<output>
				<port id="0" precision="FP32">
					<dim>1</dim>
					<dim>1</dim>
					<dim>1</dim>
					<dim>1</dim>
				</port>
			</output>
		</layer>
		<layer id="117" name="Multiply_792" type="Multiply" version="opset1">
			<data auto_broadcast="numpy" />
			<input>
				<port id="0" precision="FP32">
					<dim>1</dim>
					<dim>16</dim>
					<dim>160</dim>
					<dim>160</dim>
				</port>
				<port id="1" precision="FP32">
					<dim>1</dim>
					<dim>1</dim>
					<dim>1</dim>
					<dim>1</dim>
				</port>
			</input>
			<output>
				<port id="2" precision="FP32">
					<dim>1</dim>
					<dim>16</dim>
					<dim>160</dim>
					<dim>160</dim>
				</port>
			</output>
		</layer>
		<layer id="118" name="Constant_772" type="Const" version="opset1">
			<data element_type="f32" shape="" offset="67204" size="4" />
			<output>
				<port id="0" precision="FP32" />
			</output>
		</layer>
		<layer id="119" name="Range_768" type="Const" version="opset1">
			<data element_type="i64" shape="4" offset="67208" size="32" />
			<output>
				<port id="0" precision="I64">
					<dim>4</dim>
				</port>
			</output>
		</layer>
		<layer id="120" name="ReduceMax_770" type="ReduceMax" version="opset1">
			<data keep_dims="false" />
			<input>
				<port id="0" precision="FP32">
					<dim>1</dim>
					<dim>16</dim>
					<dim>160</dim>
					<dim>160</dim>
				</port>
				<port id="1" precision="I64">
					<dim>4</dim>
				</port>
			</input>
			<output>
				<port id="2" precision="FP32" />
			</output>
		</layer>
		<layer id="121" name="Maximum_773" type="Maximum" version="opset1">
			<data auto_broadcast="numpy" />
			<input>
				<port id="0" precision="FP32" />
				<port id="1" precision="FP32" />
			</input>
			<output>
				<port id="2" precision="FP32" />
			</output>
		</layer>
		<layer id="122" name="Constant_783" type="Const" version="opset1">
			<data element_type="f32" shape="" offset="67204" size="4" />
			<output>
				<port id="0" precision="FP32" />
			</output>
		</layer>
		<layer id="123" name="Range_779" type="Const" version="opset1">
			<data element_type="i64" shape="4" offset="67208" size="32" />
			<output>
				<port id="0" precision="I64">
					<dim>4</dim>
				</port>
			</output>
		</layer>
		<layer id="124" name="ReduceMin_781" type="ReduceMin" version="opset1">
			<data keep_dims="false" />
			<input>
				<port id="0" precision="FP32">
					<dim>1</dim>
					<dim>16</dim>
					<dim>160</dim>
					<dim>160</dim>
				</port>
				<port id="1" precision="I64">
					<dim>4</dim>
				</port>
			</input>
			<output>
				<port id="2" precision="FP32" />
			</output>
		</layer>
		<layer id="125" name="Minimum_784" type="Minimum" version="opset1">
			<data auto_broadcast="numpy" />
			<input>
				<port id="0" precision="FP32" />
				<port id="1" precision="FP32" />
			</input>
			<output>
				<port id="2" precision="FP32" />
			</output>
		</layer>
		<layer id="126" name="Subtract_785" type="Subtract" version="opset1">
			<data auto_broadcast="numpy" />
			<input>
				<port id="0" precision="FP32" />
				<port id="1" precision="FP32" />
			</input>
			<output>
				<port id="2" precision="FP32" />
			</output>
		</layer>
		<layer id="127" name="Divide_793" type="Divide" version="opset1">
			<data auto_broadcast="numpy" m_pythondiv="true" />
			<input>
				<port id="0" precision="FP32">
					<dim>1</dim>
					<dim>16</dim>
					<dim>160</dim>
					<dim>160</dim>
				</port>
				<port id="1" precision="FP32" />
			</input>
			<output>
				<port id="2" precision="FP32">
					<dim>1</dim>
					<dim>16</dim>
					<dim>160</dim>
					<dim>160</dim>
				</port>
			</output>
		</layer>
		<layer id="128" name="Round_794" type="Round" version="opset5">
			<data mode="half_to_even" />
			<input>
				<port id="0" precision="FP32">
					<dim>1</dim>
					<dim>16</dim>
					<dim>160</dim>
					<dim>160</dim>
				</port>
			</input>
			<output>
				<port id="1" precision="FP32">
					<dim>1</dim>
					<dim>16</dim>
					<dim>160</dim>
					<dim>160</dim>
				</port>
			</output>
		</layer>
		<layer id="129" name="Constant_760" type="Const" version="opset1">
			<data element_type="f32" shape="" offset="67204" size="4" />
			<output>
				<port id="0" precision="FP32" />
			</output>
		</layer>
		<layer id="130" name="Subtract_787" type="Subtract" version="opset1">
			<data auto_broadcast="numpy" />
			<input>
				<port id="0" precision="FP32" />
				<port id="1" precision="FP32" />
			</input>
			<output>
				<port id="2" precision="FP32" />
			</output>
		</layer>
		<layer id="131" name="Constant_6965" type="Const" version="opset1">
			<data element_type="f32" shape="" offset="67240" size="4" />
			<output>
				<port id="0" precision="FP32" />
			</output>
		</layer>
		<layer id="132" name="/model.2/Split_output_1_QuantizeLinear_/model.2/Split_output_1_scale" type="Multiply" version="opset1">
			<data auto_broadcast="numpy" />
			<input>
				<port id="0" precision="FP32" />
				<port id="1" precision="FP32" />
			</input>
			<output>
				<port id="2" precision="FP32" names="/model.2/Split_output_1_scale" />
			</output>
		</layer>
		<layer id="133" name="Divide_788" type="Divide" version="opset1">
			<data auto_broadcast="numpy" m_pythondiv="true" />
			<input>
				<port id="0" precision="FP32" />
				<port id="1" precision="FP32" />
			</input>
			<output>
				<port id="2" precision="FP32" />
			</output>
		</layer>
		<layer id="134" name="Round_789" type="Round" version="opset5">
			<data mode="half_to_even" />
			<input>
				<port id="0" precision="FP32" />
			</input>
			<output>
				<port id="1" precision="FP32" />
			</output>
		</layer>
		<layer id="135" name="Clamp_790" type="Clamp" version="opset1">
			<data min="0" max="255" />
			<input>
				<port id="0" precision="FP32" />
			</input>
			<output>
				<port id="1" precision="FP32" />
			</output>
		</layer>
		<layer id="136" name="/model.2/Split_output_1_QuantizeLinear_/model.2/Split_output_1_zero_point" type="Convert" version="opset1">
			<data destination_type="u8" />
			<input>
				<port id="0" precision="FP32" />
			</input>
			<output>
				<port id="1" precision="U8" names="/model.2/Split_output_1_zero_point" />
			</output>
		</layer>
		<layer id="137" name="Convert_795" type="Convert" version="opset1">
			<data destination_type="f32" />
			<input>
				<port id="0" precision="U8" />
			</input>
			<output>
				<port id="1" precision="FP32" />
			</output>
		</layer>
		<layer id="138" name="Add_796" type="Add" version="opset1">
			<data auto_broadcast="numpy" />
			<input>
				<port id="0" precision="FP32">
					<dim>1</dim>
					<dim>16</dim>
					<dim>160</dim>
					<dim>160</dim>
				</port>
				<port id="1" precision="FP32" />
			</input>
			<output>
				<port id="2" precision="FP32">
					<dim>1</dim>
					<dim>16</dim>
					<dim>160</dim>
					<dim>160</dim>
				</port>
			</output>
		</layer>
		<layer id="139" name="Clamp_797" type="Clamp" version="opset1">
			<data min="0" max="255" />
			<input>
				<port id="0" precision="FP32">
					<dim>1</dim>
					<dim>16</dim>
					<dim>160</dim>
					<dim>160</dim>
				</port>
			</input>
			<output>
				<port id="1" precision="FP32">
					<dim>1</dim>
					<dim>16</dim>
					<dim>160</dim>
					<dim>160</dim>
				</port>
			</output>
		</layer>
		<layer id="140" name="/model.2/Split_output_1_QuantizeLinear_/model.2/Split_output_1_quantized" type="Convert" version="opset1">
			<data destination_type="u8" />
			<input>
				<port id="0" precision="FP32">
					<dim>1</dim>
					<dim>16</dim>
					<dim>160</dim>
					<dim>160</dim>
				</port>
			</input>
			<output>
				<port id="1" precision="U8" names="/model.2/Split_output_1_quantized">
					<dim>1</dim>
					<dim>16</dim>
					<dim>160</dim>
					<dim>160</dim>
				</port>
			</output>
		</layer>
		<layer id="141" name="Convert_800" type="Convert" version="opset1">
			<data destination_type="i32" />
			<input>
				<port id="0" precision="U8">
					<dim>1</dim>
					<dim>16</dim>
					<dim>160</dim>
					<dim>160</dim>
				</port>
			</input>
			<output>
				<port id="1" precision="I32">
					<dim>1</dim>
					<dim>16</dim>
					<dim>160</dim>
					<dim>160</dim>
				</port>
			</output>
		</layer>
		<layer id="142" name="Convert_802" type="Convert" version="opset1">
			<data destination_type="i32" />
			<input>
				<port id="0" precision="U8" />
			</input>
			<output>
				<port id="1" precision="I32" />
			</output>
		</layer>
		<layer id="143" name="Subtract_804" type="Subtract" version="opset1">
			<data auto_broadcast="numpy" />
			<input>
				<port id="0" precision="I32">
					<dim>1</dim>
					<dim>16</dim>
					<dim>160</dim>
					<dim>160</dim>
				</port>
				<port id="1" precision="I32" />
			</input>
			<output>
				<port id="2" precision="I32">
					<dim>1</dim>
					<dim>16</dim>
					<dim>160</dim>
					<dim>160</dim>
				</port>
			</output>
		</layer>
		<layer id="144" name="Subtract_805" type="Const" version="opset1">
			<data element_type="i32" shape="16, 16, 3, 3" offset="91856" size="9216" />
			<output>
				<port id="0" precision="I32">
					<dim>16</dim>
					<dim>16</dim>
					<dim>3</dim>
					<dim>3</dim>
				</port>
			</output>
		</layer>
		<layer id="145" name="/model.2/m.0/cv1/conv/Conv_quant" type="Convolution" version="opset1">
			<data strides="1, 1" dilations="1, 1" pads_begin="1, 1" pads_end="1, 1" auto_pad="explicit" />
			<input>
				<port id="0" precision="I32">
					<dim>1</dim>
					<dim>16</dim>
					<dim>160</dim>
					<dim>160</dim>
				</port>
				<port id="1" precision="I32">
					<dim>16</dim>
					<dim>16</dim>
					<dim>3</dim>
					<dim>3</dim>
				</port>
			</input>
			<output>
				<port id="2" precision="I32" names="/model.2/m.0/cv1/conv/Conv_output_0_output_quantized">
					<dim>1</dim>
					<dim>16</dim>
					<dim>160</dim>
					<dim>160</dim>
				</port>
			</output>
		</layer>
		<layer id="146" name="/model.2/m.0/cv1/conv/Conv_output_0_output_quantized_cast" type="Convert" version="opset1">
			<data destination_type="f32" />
			<input>
				<port id="0" precision="I32">
					<dim>1</dim>
					<dim>16</dim>
					<dim>160</dim>
					<dim>160</dim>
				</port>
			</input>
			<output>
				<port id="1" precision="FP32" names="/model.2/m.0/cv1/conv/Conv_output_0_output_quantized_cast_output">
					<dim>1</dim>
					<dim>16</dim>
					<dim>160</dim>
					<dim>160</dim>
				</port>
			</output>
		</layer>
		<layer id="147" name="model.2.m.0.cv1.conv.weight_scale" type="Const" version="opset1">
			<data element_type="f32" shape="" offset="101072" size="4" />
			<output>
				<port id="0" precision="FP32" names="model.2.m.0.cv1.conv.weight_scale" />
			</output>
		</layer>
		<layer id="148" name="/model.2/m.0/cv1/conv/Conv_quant_scales_mul" type="Multiply" version="opset1">
			<data auto_broadcast="numpy" />
			<input>
				<port id="0" precision="FP32" />
				<port id="1" precision="FP32" />
			</input>
			<output>
				<port id="2" precision="FP32" names="/model.2/m.0/cv1/conv/Conv_quant_scales_mul:0" />
			</output>
		</layer>
		<layer id="149" name="/model.2/m.0/cv1/conv/Conv_quant_output_scale_mul" type="Multiply" version="opset1">
			<data auto_broadcast="numpy" />
			<input>
				<port id="0" precision="FP32">
					<dim>1</dim>
					<dim>16</dim>
					<dim>160</dim>
					<dim>160</dim>
				</port>
				<port id="1" precision="FP32" />
			</input>
			<output>
				<port id="2" precision="FP32" names="/model.2/m.0/cv1/conv/Conv_output_0quant_scaled_output">
					<dim>1</dim>
					<dim>16</dim>
					<dim>160</dim>
					<dim>160</dim>
				</port>
			</output>
		</layer>
		<layer id="150" name="/model.2/m.0/cv1/conv/Conv_output_0_bias_reshape_output" type="Const" version="opset1">
			<data element_type="f32" shape="1, 16, 1, 1" offset="101076" size="64" />
			<output>
				<port id="0" precision="FP32" names="/model.2/m.0/cv1/conv/Conv_output_0_bias_reshape_output">
					<dim>1</dim>
					<dim>16</dim>
					<dim>1</dim>
					<dim>1</dim>
				</port>
			</output>
		</layer>
		<layer id="151" name="/model.2/m.0/cv1/conv/Conv_output_0_bias_add" type="Add" version="opset1">
			<data auto_broadcast="numpy" />
			<input>
				<port id="0" precision="FP32">
					<dim>1</dim>
					<dim>16</dim>
					<dim>160</dim>
					<dim>160</dim>
				</port>
				<port id="1" precision="FP32">
					<dim>1</dim>
					<dim>16</dim>
					<dim>1</dim>
					<dim>1</dim>
				</port>
			</input>
			<output>
				<port id="2" precision="FP32" names="/model.2/m.0/cv1/conv/Conv_output_0">
					<dim>1</dim>
					<dim>16</dim>
					<dim>160</dim>
					<dim>160</dim>
				</port>
			</output>
		</layer>
		<layer id="152" name="/model.2/m.0/cv1/act/Mul" type="Swish" version="opset4">
			<input>
				<port id="0" precision="FP32">
					<dim>1</dim>
					<dim>16</dim>
					<dim>160</dim>
					<dim>160</dim>
				</port>
			</input>
			<output>
				<port id="1" precision="FP32" names="/model.2/m.0/cv1/act/Mul_output_0">
					<dim>1</dim>
					<dim>16</dim>
					<dim>160</dim>
					<dim>160</dim>
				</port>
			</output>
		</layer>
		<layer id="153" name="Constant_7253" type="Const" version="opset1">
			<data element_type="f32" shape="1, 1, 1, 1" offset="67200" size="4" />
			<output>
				<port id="0" precision="FP32">
					<dim>1</dim>
					<dim>1</dim>
					<dim>1</dim>
					<dim>1</dim>
				</port>
			</output>
		</layer>
		<layer id="154" name="Multiply_844" type="Multiply" version="opset1">
			<data auto_broadcast="numpy" />
			<input>
				<port id="0" precision="FP32">
					<dim>1</dim>
					<dim>16</dim>
					<dim>160</dim>
					<dim>160</dim>
				</port>
				<port id="1" precision="FP32">
					<dim>1</dim>
					<dim>1</dim>
					<dim>1</dim>
					<dim>1</dim>
				</port>
			</input>
			<output>
				<port id="2" precision="FP32">
					<dim>1</dim>
					<dim>16</dim>
					<dim>160</dim>
					<dim>160</dim>
				</port>
			</output>
		</layer>
		<layer id="155" name="Constant_824" type="Const" version="opset1">
			<data element_type="f32" shape="" offset="67204" size="4" />
			<output>
				<port id="0" precision="FP32" />
			</output>
		</layer>
		<layer id="156" name="Range_820" type="Const" version="opset1">
			<data element_type="i64" shape="4" offset="67208" size="32" />
			<output>
				<port id="0" precision="I64">
					<dim>4</dim>
				</port>
			</output>
		</layer>
		<layer id="157" name="ReduceMax_822" type="ReduceMax" version="opset1">
			<data keep_dims="false" />
			<input>
				<port id="0" precision="FP32">
					<dim>1</dim>
					<dim>16</dim>
					<dim>160</dim>
					<dim>160</dim>
				</port>
				<port id="1" precision="I64">
					<dim>4</dim>
				</port>
			</input>
			<output>
				<port id="2" precision="FP32" />
			</output>
		</layer>
		<layer id="158" name="Maximum_825" type="Maximum" version="opset1">
			<data auto_broadcast="numpy" />
			<input>
				<port id="0" precision="FP32" />
				<port id="1" precision="FP32" />
			</input>
			<output>
				<port id="2" precision="FP32" />
			</output>
		</layer>
		<layer id="159" name="Constant_835" type="Const" version="opset1">
			<data element_type="f32" shape="" offset="67204" size="4" />
			<output>
				<port id="0" precision="FP32" />
			</output>
		</layer>
		<layer id="160" name="Range_831" type="Const" version="opset1">
			<data element_type="i64" shape="4" offset="67208" size="32" />
			<output>
				<port id="0" precision="I64">
					<dim>4</dim>
				</port>
			</output>
		</layer>
		<layer id="161" name="ReduceMin_833" type="ReduceMin" version="opset1">
			<data keep_dims="false" />
			<input>
				<port id="0" precision="FP32">
					<dim>1</dim>
					<dim>16</dim>
					<dim>160</dim>
					<dim>160</dim>
				</port>
				<port id="1" precision="I64">
					<dim>4</dim>
				</port>
			</input>
			<output>
				<port id="2" precision="FP32" />
			</output>
		</layer>
		<layer id="162" name="Minimum_836" type="Minimum" version="opset1">
			<data auto_broadcast="numpy" />
			<input>
				<port id="0" precision="FP32" />
				<port id="1" precision="FP32" />
			</input>
			<output>
				<port id="2" precision="FP32" />
			</output>
		</layer>
		<layer id="163" name="Subtract_837" type="Subtract" version="opset1">
			<data auto_broadcast="numpy" />
			<input>
				<port id="0" precision="FP32" />
				<port id="1" precision="FP32" />
			</input>
			<output>
				<port id="2" precision="FP32" />
			</output>
		</layer>
		<layer id="164" name="Divide_845" type="Divide" version="opset1">
			<data auto_broadcast="numpy" m_pythondiv="true" />
			<input>
				<port id="0" precision="FP32">
					<dim>1</dim>
					<dim>16</dim>
					<dim>160</dim>
					<dim>160</dim>
				</port>
				<port id="1" precision="FP32" />
			</input>
			<output>
				<port id="2" precision="FP32">
					<dim>1</dim>
					<dim>16</dim>
					<dim>160</dim>
					<dim>160</dim>
				</port>
			</output>
		</layer>
		<layer id="165" name="Round_846" type="Round" version="opset5">
			<data mode="half_to_even" />
			<input>
				<port id="0" precision="FP32">
					<dim>1</dim>
					<dim>16</dim>
					<dim>160</dim>
					<dim>160</dim>
				</port>
			</input>
			<output>
				<port id="1" precision="FP32">
					<dim>1</dim>
					<dim>16</dim>
					<dim>160</dim>
					<dim>160</dim>
				</port>
			</output>
		</layer>
		<layer id="166" name="Constant_812" type="Const" version="opset1">
			<data element_type="f32" shape="" offset="67204" size="4" />
			<output>
				<port id="0" precision="FP32" />
			</output>
		</layer>
		<layer id="167" name="Subtract_839" type="Subtract" version="opset1">
			<data auto_broadcast="numpy" />
			<input>
				<port id="0" precision="FP32" />
				<port id="1" precision="FP32" />
			</input>
			<output>
				<port id="2" precision="FP32" />
			</output>
		</layer>
		<layer id="168" name="Constant_6969" type="Const" version="opset1">
			<data element_type="f32" shape="" offset="67240" size="4" />
			<output>
				<port id="0" precision="FP32" />
			</output>
		</layer>
		<layer id="169" name="/model.2/m.0/cv1/act/Mul_output_0_QuantizeLinear_/model.2/m.0/cv1/act/Mul_output_0_scale" type="Multiply" version="opset1">
			<data auto_broadcast="numpy" />
			<input>
				<port id="0" precision="FP32" />
				<port id="1" precision="FP32" />
			</input>
			<output>
				<port id="2" precision="FP32" names="/model.2/m.0/cv1/act/Mul_output_0_scale" />
			</output>
		</layer>
		<layer id="170" name="Divide_840" type="Divide" version="opset1">
			<data auto_broadcast="numpy" m_pythondiv="true" />
			<input>
				<port id="0" precision="FP32" />
				<port id="1" precision="FP32" />
			</input>
			<output>
				<port id="2" precision="FP32" />
			</output>
		</layer>
		<layer id="171" name="Round_841" type="Round" version="opset5">
			<data mode="half_to_even" />
			<input>
				<port id="0" precision="FP32" />
			</input>
			<output>
				<port id="1" precision="FP32" />
			</output>
		</layer>
		<layer id="172" name="Clamp_842" type="Clamp" version="opset1">
			<data min="0" max="255" />
			<input>
				<port id="0" precision="FP32" />
			</input>
			<output>
				<port id="1" precision="FP32" />
			</output>
		</layer>
		<layer id="173" name="/model.2/m.0/cv1/act/Mul_output_0_QuantizeLinear_/model.2/m.0/cv1/act/Mul_output_0_zero_point" type="Convert" version="opset1">
			<data destination_type="u8" />
			<input>
				<port id="0" precision="FP32" />
			</input>
			<output>
				<port id="1" precision="U8" names="/model.2/m.0/cv1/act/Mul_output_0_zero_point" />
			</output>
		</layer>
		<layer id="174" name="Convert_847" type="Convert" version="opset1">
			<data destination_type="f32" />
			<input>
				<port id="0" precision="U8" />
			</input>
			<output>
				<port id="1" precision="FP32" />
			</output>
		</layer>
		<layer id="175" name="Add_848" type="Add" version="opset1">
			<data auto_broadcast="numpy" />
			<input>
				<port id="0" precision="FP32">
					<dim>1</dim>
					<dim>16</dim>
					<dim>160</dim>
					<dim>160</dim>
				</port>
				<port id="1" precision="FP32" />
			</input>
			<output>
				<port id="2" precision="FP32">
					<dim>1</dim>
					<dim>16</dim>
					<dim>160</dim>
					<dim>160</dim>
				</port>
			</output>
		</layer>
		<layer id="176" name="Clamp_849" type="Clamp" version="opset1">
			<data min="0" max="255" />
			<input>
				<port id="0" precision="FP32">
					<dim>1</dim>
					<dim>16</dim>
					<dim>160</dim>
					<dim>160</dim>
				</port>
			</input>
			<output>
				<port id="1" precision="FP32">
					<dim>1</dim>
					<dim>16</dim>
					<dim>160</dim>
					<dim>160</dim>
				</port>
			</output>
		</layer>
		<layer id="177" name="/model.2/m.0/cv1/act/Mul_output_0_QuantizeLinear_/model.2/m.0/cv1/act/Mul_output_0_quantized" type="Convert" version="opset1">
			<data destination_type="u8" />
			<input>
				<port id="0" precision="FP32">
					<dim>1</dim>
					<dim>16</dim>
					<dim>160</dim>
					<dim>160</dim>
				</port>
			</input>
			<output>
				<port id="1" precision="U8" names="/model.2/m.0/cv1/act/Mul_output_0_quantized">
					<dim>1</dim>
					<dim>16</dim>
					<dim>160</dim>
					<dim>160</dim>
				</port>
			</output>
		</layer>
		<layer id="178" name="Convert_852" type="Convert" version="opset1">
			<data destination_type="i32" />
			<input>
				<port id="0" precision="U8">
					<dim>1</dim>
					<dim>16</dim>
					<dim>160</dim>
					<dim>160</dim>
				</port>
			</input>
			<output>
				<port id="1" precision="I32">
					<dim>1</dim>
					<dim>16</dim>
					<dim>160</dim>
					<dim>160</dim>
				</port>
			</output>
		</layer>
		<layer id="179" name="Convert_854" type="Convert" version="opset1">
			<data destination_type="i32" />
			<input>
				<port id="0" precision="U8" />
			</input>
			<output>
				<port id="1" precision="I32" />
			</output>
		</layer>
		<layer id="180" name="Subtract_856" type="Subtract" version="opset1">
			<data auto_broadcast="numpy" />
			<input>
				<port id="0" precision="I32">
					<dim>1</dim>
					<dim>16</dim>
					<dim>160</dim>
					<dim>160</dim>
				</port>
				<port id="1" precision="I32" />
			</input>
			<output>
				<port id="2" precision="I32">
					<dim>1</dim>
					<dim>16</dim>
					<dim>160</dim>
					<dim>160</dim>
				</port>
			</output>
		</layer>
		<layer id="181" name="Subtract_857" type="Const" version="opset1">
			<data element_type="i32" shape="16, 16, 3, 3" offset="101140" size="9216" />
			<output>
				<port id="0" precision="I32">
					<dim>16</dim>
					<dim>16</dim>
					<dim>3</dim>
					<dim>3</dim>
				</port>
			</output>
		</layer>
		<layer id="182" name="/model.2/m.0/cv2/conv/Conv_quant" type="Convolution" version="opset1">
			<data strides="1, 1" dilations="1, 1" pads_begin="1, 1" pads_end="1, 1" auto_pad="explicit" />
			<input>
				<port id="0" precision="I32">
					<dim>1</dim>
					<dim>16</dim>
					<dim>160</dim>
					<dim>160</dim>
				</port>
				<port id="1" precision="I32">
					<dim>16</dim>
					<dim>16</dim>
					<dim>3</dim>
					<dim>3</dim>
				</port>
			</input>
			<output>
				<port id="2" precision="I32" names="/model.2/m.0/cv2/conv/Conv_output_0_output_quantized">
					<dim>1</dim>
					<dim>16</dim>
					<dim>160</dim>
					<dim>160</dim>
				</port>
			</output>
		</layer>
		<layer id="183" name="/model.2/m.0/cv2/conv/Conv_output_0_output_quantized_cast" type="Convert" version="opset1">
			<data destination_type="f32" />
			<input>
				<port id="0" precision="I32">
					<dim>1</dim>
					<dim>16</dim>
					<dim>160</dim>
					<dim>160</dim>
				</port>
			</input>
			<output>
				<port id="1" precision="FP32" names="/model.2/m.0/cv2/conv/Conv_output_0_output_quantized_cast_output">
					<dim>1</dim>
					<dim>16</dim>
					<dim>160</dim>
					<dim>160</dim>
				</port>
			</output>
		</layer>
		<layer id="184" name="model.2.m.0.cv2.conv.weight_scale" type="Const" version="opset1">
			<data element_type="f32" shape="" offset="110356" size="4" />
			<output>
				<port id="0" precision="FP32" names="model.2.m.0.cv2.conv.weight_scale" />
			</output>
		</layer>
		<layer id="185" name="/model.2/m.0/cv2/conv/Conv_quant_scales_mul" type="Multiply" version="opset1">
			<data auto_broadcast="numpy" />
			<input>
				<port id="0" precision="FP32" />
				<port id="1" precision="FP32" />
			</input>
			<output>
				<port id="2" precision="FP32" names="/model.2/m.0/cv2/conv/Conv_quant_scales_mul:0" />
			</output>
		</layer>
		<layer id="186" name="/model.2/m.0/cv2/conv/Conv_quant_output_scale_mul" type="Multiply" version="opset1">
			<data auto_broadcast="numpy" />
			<input>
				<port id="0" precision="FP32">
					<dim>1</dim>
					<dim>16</dim>
					<dim>160</dim>
					<dim>160</dim>
				</port>
				<port id="1" precision="FP32" />
			</input>
			<output>
				<port id="2" precision="FP32" names="/model.2/m.0/cv2/conv/Conv_output_0quant_scaled_output">
					<dim>1</dim>
					<dim>16</dim>
					<dim>160</dim>
					<dim>160</dim>
				</port>
			</output>
		</layer>
		<layer id="187" name="/model.2/m.0/cv2/conv/Conv_output_0_bias_reshape_output" type="Const" version="opset1">
			<data element_type="f32" shape="1, 16, 1, 1" offset="110360" size="64" />
			<output>
				<port id="0" precision="FP32" names="/model.2/m.0/cv2/conv/Conv_output_0_bias_reshape_output">
					<dim>1</dim>
					<dim>16</dim>
					<dim>1</dim>
					<dim>1</dim>
				</port>
			</output>
		</layer>
		<layer id="188" name="/model.2/m.0/cv2/conv/Conv_output_0_bias_add" type="Add" version="opset1">
			<data auto_broadcast="numpy" />
			<input>
				<port id="0" precision="FP32">
					<dim>1</dim>
					<dim>16</dim>
					<dim>160</dim>
					<dim>160</dim>
				</port>
				<port id="1" precision="FP32">
					<dim>1</dim>
					<dim>16</dim>
					<dim>1</dim>
					<dim>1</dim>
				</port>
			</input>
			<output>
				<port id="2" precision="FP32" names="/model.2/m.0/cv2/conv/Conv_output_0">
					<dim>1</dim>
					<dim>16</dim>
					<dim>160</dim>
					<dim>160</dim>
				</port>
			</output>
		</layer>
		<layer id="189" name="/model.2/m.0/cv2/act/Mul" type="Swish" version="opset4">
			<input>
				<port id="0" precision="FP32">
					<dim>1</dim>
					<dim>16</dim>
					<dim>160</dim>
					<dim>160</dim>
				</port>
			</input>
			<output>
				<port id="1" precision="FP32" names="/model.2/m.0/cv2/act/Mul_output_0">
					<dim>1</dim>
					<dim>16</dim>
					<dim>160</dim>
					<dim>160</dim>
				</port>
			</output>
		</layer>
		<layer id="190" name="/model.2/m.0/Add" type="Add" version="opset1">
			<data auto_broadcast="numpy" />
			<input>
				<port id="0" precision="FP32">
					<dim>1</dim>
					<dim>16</dim>
					<dim>160</dim>
					<dim>160</dim>
				</port>
				<port id="1" precision="FP32">
					<dim>1</dim>
					<dim>16</dim>
					<dim>160</dim>
					<dim>160</dim>
				</port>
			</input>
			<output>
				<port id="2" precision="FP32" names="/model.2/m.0/Add_output_0">
					<dim>1</dim>
					<dim>16</dim>
					<dim>160</dim>
					<dim>160</dim>
				</port>
			</output>
		</layer>
		<layer id="191" name="/model.2/Concat" type="Concat" version="opset1">
			<data axis="1" />
			<input>
				<port id="0" precision="FP32">
					<dim>1</dim>
					<dim>16</dim>
					<dim>160</dim>
					<dim>160</dim>
				</port>
				<port id="1" precision="FP32">
					<dim>1</dim>
					<dim>16</dim>
					<dim>160</dim>
					<dim>160</dim>
				</port>
				<port id="2" precision="FP32">
					<dim>1</dim>
					<dim>16</dim>
					<dim>160</dim>
					<dim>160</dim>
				</port>
			</input>
			<output>
				<port id="3" precision="FP32" names="/model.2/Concat_output_0">
					<dim>1</dim>
					<dim>48</dim>
					<dim>160</dim>
					<dim>160</dim>
				</port>
			</output>
		</layer>
		<layer id="192" name="Constant_7254" type="Const" version="opset1">
			<data element_type="f32" shape="1, 1, 1, 1" offset="67200" size="4" />
			<output>
				<port id="0" precision="FP32">
					<dim>1</dim>
					<dim>1</dim>
					<dim>1</dim>
					<dim>1</dim>
				</port>
			</output>
		</layer>
		<layer id="193" name="Multiply_898" type="Multiply" version="opset1">
			<data auto_broadcast="numpy" />
			<input>
				<port id="0" precision="FP32">
					<dim>1</dim>
					<dim>48</dim>
					<dim>160</dim>
					<dim>160</dim>
				</port>
				<port id="1" precision="FP32">
					<dim>1</dim>
					<dim>1</dim>
					<dim>1</dim>
					<dim>1</dim>
				</port>
			</input>
			<output>
				<port id="2" precision="FP32">
					<dim>1</dim>
					<dim>48</dim>
					<dim>160</dim>
					<dim>160</dim>
				</port>
			</output>
		</layer>
		<layer id="194" name="Constant_878" type="Const" version="opset1">
			<data element_type="f32" shape="" offset="67204" size="4" />
			<output>
				<port id="0" precision="FP32" />
			</output>
		</layer>
		<layer id="195" name="Range_874" type="Const" version="opset1">
			<data element_type="i64" shape="4" offset="67208" size="32" />
			<output>
				<port id="0" precision="I64">
					<dim>4</dim>
				</port>
			</output>
		</layer>
		<layer id="196" name="ReduceMax_876" type="ReduceMax" version="opset1">
			<data keep_dims="false" />
			<input>
				<port id="0" precision="FP32">
					<dim>1</dim>
					<dim>48</dim>
					<dim>160</dim>
					<dim>160</dim>
				</port>
				<port id="1" precision="I64">
					<dim>4</dim>
				</port>
			</input>
			<output>
				<port id="2" precision="FP32" />
			</output>
		</layer>
		<layer id="197" name="Maximum_879" type="Maximum" version="opset1">
			<data auto_broadcast="numpy" />
			<input>
				<port id="0" precision="FP32" />
				<port id="1" precision="FP32" />
			</input>
			<output>
				<port id="2" precision="FP32" />
			</output>
		</layer>
		<layer id="198" name="Constant_889" type="Const" version="opset1">
			<data element_type="f32" shape="" offset="67204" size="4" />
			<output>
				<port id="0" precision="FP32" />
			</output>
		</layer>
		<layer id="199" name="Range_885" type="Const" version="opset1">
			<data element_type="i64" shape="4" offset="67208" size="32" />
			<output>
				<port id="0" precision="I64">
					<dim>4</dim>
				</port>
			</output>
		</layer>
		<layer id="200" name="ReduceMin_887" type="ReduceMin" version="opset1">
			<data keep_dims="false" />
			<input>
				<port id="0" precision="FP32">
					<dim>1</dim>
					<dim>48</dim>
					<dim>160</dim>
					<dim>160</dim>
				</port>
				<port id="1" precision="I64">
					<dim>4</dim>
				</port>
			</input>
			<output>
				<port id="2" precision="FP32" />
			</output>
		</layer>
		<layer id="201" name="Minimum_890" type="Minimum" version="opset1">
			<data auto_broadcast="numpy" />
			<input>
				<port id="0" precision="FP32" />
				<port id="1" precision="FP32" />
			</input>
			<output>
				<port id="2" precision="FP32" />
			</output>
		</layer>
		<layer id="202" name="Subtract_891" type="Subtract" version="opset1">
			<data auto_broadcast="numpy" />
			<input>
				<port id="0" precision="FP32" />
				<port id="1" precision="FP32" />
			</input>
			<output>
				<port id="2" precision="FP32" />
			</output>
		</layer>
		<layer id="203" name="Divide_899" type="Divide" version="opset1">
			<data auto_broadcast="numpy" m_pythondiv="true" />
			<input>
				<port id="0" precision="FP32">
					<dim>1</dim>
					<dim>48</dim>
					<dim>160</dim>
					<dim>160</dim>
				</port>
				<port id="1" precision="FP32" />
			</input>
			<output>
				<port id="2" precision="FP32">
					<dim>1</dim>
					<dim>48</dim>
					<dim>160</dim>
					<dim>160</dim>
				</port>
			</output>
		</layer>
		<layer id="204" name="Round_900" type="Round" version="opset5">
			<data mode="half_to_even" />
			<input>
				<port id="0" precision="FP32">
					<dim>1</dim>
					<dim>48</dim>
					<dim>160</dim>
					<dim>160</dim>
				</port>
			</input>
			<output>
				<port id="1" precision="FP32">
					<dim>1</dim>
					<dim>48</dim>
					<dim>160</dim>
					<dim>160</dim>
				</port>
			</output>
		</layer>
		<layer id="205" name="Constant_866" type="Const" version="opset1">
			<data element_type="f32" shape="" offset="67204" size="4" />
			<output>
				<port id="0" precision="FP32" />
			</output>
		</layer>
		<layer id="206" name="Subtract_893" type="Subtract" version="opset1">
			<data auto_broadcast="numpy" />
			<input>
				<port id="0" precision="FP32" />
				<port id="1" precision="FP32" />
			</input>
			<output>
				<port id="2" precision="FP32" />
			</output>
		</layer>
		<layer id="207" name="Constant_6973" type="Const" version="opset1">
			<data element_type="f32" shape="" offset="67240" size="4" />
			<output>
				<port id="0" precision="FP32" />
			</output>
		</layer>
		<layer id="208" name="/model.2/Concat_output_0_QuantizeLinear_/model.2/Concat_output_0_scale" type="Multiply" version="opset1">
			<data auto_broadcast="numpy" />
			<input>
				<port id="0" precision="FP32" />
				<port id="1" precision="FP32" />
			</input>
			<output>
				<port id="2" precision="FP32" names="/model.2/Concat_output_0_scale" />
			</output>
		</layer>
		<layer id="209" name="Divide_894" type="Divide" version="opset1">
			<data auto_broadcast="numpy" m_pythondiv="true" />
			<input>
				<port id="0" precision="FP32" />
				<port id="1" precision="FP32" />
			</input>
			<output>
				<port id="2" precision="FP32" />
			</output>
		</layer>
		<layer id="210" name="Round_895" type="Round" version="opset5">
			<data mode="half_to_even" />
			<input>
				<port id="0" precision="FP32" />
			</input>
			<output>
				<port id="1" precision="FP32" />
			</output>
		</layer>
		<layer id="211" name="Clamp_896" type="Clamp" version="opset1">
			<data min="0" max="255" />
			<input>
				<port id="0" precision="FP32" />
			</input>
			<output>
				<port id="1" precision="FP32" />
			</output>
		</layer>
		<layer id="212" name="/model.2/Concat_output_0_QuantizeLinear_/model.2/Concat_output_0_zero_point" type="Convert" version="opset1">
			<data destination_type="u8" />
			<input>
				<port id="0" precision="FP32" />
			</input>
			<output>
				<port id="1" precision="U8" names="/model.2/Concat_output_0_zero_point" />
			</output>
		</layer>
		<layer id="213" name="Convert_901" type="Convert" version="opset1">
			<data destination_type="f32" />
			<input>
				<port id="0" precision="U8" />
			</input>
			<output>
				<port id="1" precision="FP32" />
			</output>
		</layer>
		<layer id="214" name="Add_902" type="Add" version="opset1">
			<data auto_broadcast="numpy" />
			<input>
				<port id="0" precision="FP32">
					<dim>1</dim>
					<dim>48</dim>
					<dim>160</dim>
					<dim>160</dim>
				</port>
				<port id="1" precision="FP32" />
			</input>
			<output>
				<port id="2" precision="FP32">
					<dim>1</dim>
					<dim>48</dim>
					<dim>160</dim>
					<dim>160</dim>
				</port>
			</output>
		</layer>
		<layer id="215" name="Clamp_903" type="Clamp" version="opset1">
			<data min="0" max="255" />
			<input>
				<port id="0" precision="FP32">
					<dim>1</dim>
					<dim>48</dim>
					<dim>160</dim>
					<dim>160</dim>
				</port>
			</input>
			<output>
				<port id="1" precision="FP32">
					<dim>1</dim>
					<dim>48</dim>
					<dim>160</dim>
					<dim>160</dim>
				</port>
			</output>
		</layer>
		<layer id="216" name="/model.2/Concat_output_0_QuantizeLinear_/model.2/Concat_output_0_quantized" type="Convert" version="opset1">
			<data destination_type="u8" />
			<input>
				<port id="0" precision="FP32">
					<dim>1</dim>
					<dim>48</dim>
					<dim>160</dim>
					<dim>160</dim>
				</port>
			</input>
			<output>
				<port id="1" precision="U8" names="/model.2/Concat_output_0_quantized">
					<dim>1</dim>
					<dim>48</dim>
					<dim>160</dim>
					<dim>160</dim>
				</port>
			</output>
		</layer>
		<layer id="217" name="Convert_906" type="Convert" version="opset1">
			<data destination_type="i32" />
			<input>
				<port id="0" precision="U8">
					<dim>1</dim>
					<dim>48</dim>
					<dim>160</dim>
					<dim>160</dim>
				</port>
			</input>
			<output>
				<port id="1" precision="I32">
					<dim>1</dim>
					<dim>48</dim>
					<dim>160</dim>
					<dim>160</dim>
				</port>
			</output>
		</layer>
		<layer id="218" name="Convert_908" type="Convert" version="opset1">
			<data destination_type="i32" />
			<input>
				<port id="0" precision="U8" />
			</input>
			<output>
				<port id="1" precision="I32" />
			</output>
		</layer>
		<layer id="219" name="Subtract_910" type="Subtract" version="opset1">
			<data auto_broadcast="numpy" />
			<input>
				<port id="0" precision="I32">
					<dim>1</dim>
					<dim>48</dim>
					<dim>160</dim>
					<dim>160</dim>
				</port>
				<port id="1" precision="I32" />
			</input>
			<output>
				<port id="2" precision="I32">
					<dim>1</dim>
					<dim>48</dim>
					<dim>160</dim>
					<dim>160</dim>
				</port>
			</output>
		</layer>
		<layer id="220" name="Subtract_911" type="Const" version="opset1">
			<data element_type="i32" shape="32, 48, 1, 1" offset="110424" size="6144" />
			<output>
				<port id="0" precision="I32">
					<dim>32</dim>
					<dim>48</dim>
					<dim>1</dim>
					<dim>1</dim>
				</port>
			</output>
		</layer>
		<layer id="221" name="/model.2/cv2/conv/Conv_quant" type="Convolution" version="opset1">
			<data strides="1, 1" dilations="1, 1" pads_begin="0, 0" pads_end="0, 0" auto_pad="explicit" />
			<input>
				<port id="0" precision="I32">
					<dim>1</dim>
					<dim>48</dim>
					<dim>160</dim>
					<dim>160</dim>
				</port>
				<port id="1" precision="I32">
					<dim>32</dim>
					<dim>48</dim>
					<dim>1</dim>
					<dim>1</dim>
				</port>
			</input>
			<output>
				<port id="2" precision="I32" names="/model.2/cv2/conv/Conv_output_0_output_quantized">
					<dim>1</dim>
					<dim>32</dim>
					<dim>160</dim>
					<dim>160</dim>
				</port>
			</output>
		</layer>
		<layer id="222" name="/model.2/cv2/conv/Conv_output_0_output_quantized_cast" type="Convert" version="opset1">
			<data destination_type="f32" />
			<input>
				<port id="0" precision="I32">
					<dim>1</dim>
					<dim>32</dim>
					<dim>160</dim>
					<dim>160</dim>
				</port>
			</input>
			<output>
				<port id="1" precision="FP32" names="/model.2/cv2/conv/Conv_output_0_output_quantized_cast_output">
					<dim>1</dim>
					<dim>32</dim>
					<dim>160</dim>
					<dim>160</dim>
				</port>
			</output>
		</layer>
		<layer id="223" name="model.2.cv2.conv.weight_scale" type="Const" version="opset1">
			<data element_type="f32" shape="" offset="116568" size="4" />
			<output>
				<port id="0" precision="FP32" names="model.2.cv2.conv.weight_scale" />
			</output>
		</layer>
		<layer id="224" name="/model.2/cv2/conv/Conv_quant_scales_mul" type="Multiply" version="opset1">
			<data auto_broadcast="numpy" />
			<input>
				<port id="0" precision="FP32" />
				<port id="1" precision="FP32" />
			</input>
			<output>
				<port id="2" precision="FP32" names="/model.2/cv2/conv/Conv_quant_scales_mul:0" />
			</output>
		</layer>
		<layer id="225" name="/model.2/cv2/conv/Conv_quant_output_scale_mul" type="Multiply" version="opset1">
			<data auto_broadcast="numpy" />
			<input>
				<port id="0" precision="FP32">
					<dim>1</dim>
					<dim>32</dim>
					<dim>160</dim>
					<dim>160</dim>
				</port>
				<port id="1" precision="FP32" />
			</input>
			<output>
				<port id="2" precision="FP32" names="/model.2/cv2/conv/Conv_output_0quant_scaled_output">
					<dim>1</dim>
					<dim>32</dim>
					<dim>160</dim>
					<dim>160</dim>
				</port>
			</output>
		</layer>
		<layer id="226" name="/model.2/cv2/conv/Conv_output_0_bias_reshape_output" type="Const" version="opset1">
			<data element_type="f32" shape="1, 32, 1, 1" offset="116572" size="128" />
			<output>
				<port id="0" precision="FP32" names="/model.2/cv2/conv/Conv_output_0_bias_reshape_output">
					<dim>1</dim>
					<dim>32</dim>
					<dim>1</dim>
					<dim>1</dim>
				</port>
			</output>
		</layer>
		<layer id="227" name="/model.2/cv2/conv/Conv_output_0_bias_add" type="Add" version="opset1">
			<data auto_broadcast="numpy" />
			<input>
				<port id="0" precision="FP32">
					<dim>1</dim>
					<dim>32</dim>
					<dim>160</dim>
					<dim>160</dim>
				</port>
				<port id="1" precision="FP32">
					<dim>1</dim>
					<dim>32</dim>
					<dim>1</dim>
					<dim>1</dim>
				</port>
			</input>
			<output>
				<port id="2" precision="FP32" names="/model.2/cv2/conv/Conv_output_0">
					<dim>1</dim>
					<dim>32</dim>
					<dim>160</dim>
					<dim>160</dim>
				</port>
			</output>
		</layer>
		<layer id="228" name="/model.2/cv2/act/Mul" type="Swish" version="opset4">
			<input>
				<port id="0" precision="FP32">
					<dim>1</dim>
					<dim>32</dim>
					<dim>160</dim>
					<dim>160</dim>
				</port>
			</input>
			<output>
				<port id="1" precision="FP32" names="/model.2/cv2/act/Mul_output_0">
					<dim>1</dim>
					<dim>32</dim>
					<dim>160</dim>
					<dim>160</dim>
				</port>
			</output>
		</layer>
		<layer id="229" name="Constant_7255" type="Const" version="opset1">
			<data element_type="f32" shape="1, 1, 1, 1" offset="67200" size="4" />
			<output>
				<port id="0" precision="FP32">
					<dim>1</dim>
					<dim>1</dim>
					<dim>1</dim>
					<dim>1</dim>
				</port>
			</output>
		</layer>
		<layer id="230" name="Multiply_950" type="Multiply" version="opset1">
			<data auto_broadcast="numpy" />
			<input>
				<port id="0" precision="FP32">
					<dim>1</dim>
					<dim>32</dim>
					<dim>160</dim>
					<dim>160</dim>
				</port>
				<port id="1" precision="FP32">
					<dim>1</dim>
					<dim>1</dim>
					<dim>1</dim>
					<dim>1</dim>
				</port>
			</input>
			<output>
				<port id="2" precision="FP32">
					<dim>1</dim>
					<dim>32</dim>
					<dim>160</dim>
					<dim>160</dim>
				</port>
			</output>
		</layer>
		<layer id="231" name="Constant_930" type="Const" version="opset1">
			<data element_type="f32" shape="" offset="67204" size="4" />
			<output>
				<port id="0" precision="FP32" />
			</output>
		</layer>
		<layer id="232" name="Range_926" type="Const" version="opset1">
			<data element_type="i64" shape="4" offset="67208" size="32" />
			<output>
				<port id="0" precision="I64">
					<dim>4</dim>
				</port>
			</output>
		</layer>
		<layer id="233" name="ReduceMax_928" type="ReduceMax" version="opset1">
			<data keep_dims="false" />
			<input>
				<port id="0" precision="FP32">
					<dim>1</dim>
					<dim>32</dim>
					<dim>160</dim>
					<dim>160</dim>
				</port>
				<port id="1" precision="I64">
					<dim>4</dim>
				</port>
			</input>
			<output>
				<port id="2" precision="FP32" />
			</output>
		</layer>
		<layer id="234" name="Maximum_931" type="Maximum" version="opset1">
			<data auto_broadcast="numpy" />
			<input>
				<port id="0" precision="FP32" />
				<port id="1" precision="FP32" />
			</input>
			<output>
				<port id="2" precision="FP32" />
			</output>
		</layer>
		<layer id="235" name="Constant_941" type="Const" version="opset1">
			<data element_type="f32" shape="" offset="67204" size="4" />
			<output>
				<port id="0" precision="FP32" />
			</output>
		</layer>
		<layer id="236" name="Range_937" type="Const" version="opset1">
			<data element_type="i64" shape="4" offset="67208" size="32" />
			<output>
				<port id="0" precision="I64">
					<dim>4</dim>
				</port>
			</output>
		</layer>
		<layer id="237" name="ReduceMin_939" type="ReduceMin" version="opset1">
			<data keep_dims="false" />
			<input>
				<port id="0" precision="FP32">
					<dim>1</dim>
					<dim>32</dim>
					<dim>160</dim>
					<dim>160</dim>
				</port>
				<port id="1" precision="I64">
					<dim>4</dim>
				</port>
			</input>
			<output>
				<port id="2" precision="FP32" />
			</output>
		</layer>
		<layer id="238" name="Minimum_942" type="Minimum" version="opset1">
			<data auto_broadcast="numpy" />
			<input>
				<port id="0" precision="FP32" />
				<port id="1" precision="FP32" />
			</input>
			<output>
				<port id="2" precision="FP32" />
			</output>
		</layer>
		<layer id="239" name="Subtract_943" type="Subtract" version="opset1">
			<data auto_broadcast="numpy" />
			<input>
				<port id="0" precision="FP32" />
				<port id="1" precision="FP32" />
			</input>
			<output>
				<port id="2" precision="FP32" />
			</output>
		</layer>
		<layer id="240" name="Divide_951" type="Divide" version="opset1">
			<data auto_broadcast="numpy" m_pythondiv="true" />
			<input>
				<port id="0" precision="FP32">
					<dim>1</dim>
					<dim>32</dim>
					<dim>160</dim>
					<dim>160</dim>
				</port>
				<port id="1" precision="FP32" />
			</input>
			<output>
				<port id="2" precision="FP32">
					<dim>1</dim>
					<dim>32</dim>
					<dim>160</dim>
					<dim>160</dim>
				</port>
			</output>
		</layer>
		<layer id="241" name="Round_952" type="Round" version="opset5">
			<data mode="half_to_even" />
			<input>
				<port id="0" precision="FP32">
					<dim>1</dim>
					<dim>32</dim>
					<dim>160</dim>
					<dim>160</dim>
				</port>
			</input>
			<output>
				<port id="1" precision="FP32">
					<dim>1</dim>
					<dim>32</dim>
					<dim>160</dim>
					<dim>160</dim>
				</port>
			</output>
		</layer>
		<layer id="242" name="Constant_918" type="Const" version="opset1">
			<data element_type="f32" shape="" offset="67204" size="4" />
			<output>
				<port id="0" precision="FP32" />
			</output>
		</layer>
		<layer id="243" name="Subtract_945" type="Subtract" version="opset1">
			<data auto_broadcast="numpy" />
			<input>
				<port id="0" precision="FP32" />
				<port id="1" precision="FP32" />
			</input>
			<output>
				<port id="2" precision="FP32" />
			</output>
		</layer>
		<layer id="244" name="Constant_6977" type="Const" version="opset1">
			<data element_type="f32" shape="" offset="67240" size="4" />
			<output>
				<port id="0" precision="FP32" />
			</output>
		</layer>
		<layer id="245" name="/model.2/cv2/act/Mul_output_0_QuantizeLinear_/model.2/cv2/act/Mul_output_0_scale" type="Multiply" version="opset1">
			<data auto_broadcast="numpy" />
			<input>
				<port id="0" precision="FP32" />
				<port id="1" precision="FP32" />
			</input>
			<output>
				<port id="2" precision="FP32" names="/model.2/cv2/act/Mul_output_0_scale" />
			</output>
		</layer>
		<layer id="246" name="Divide_946" type="Divide" version="opset1">
			<data auto_broadcast="numpy" m_pythondiv="true" />
			<input>
				<port id="0" precision="FP32" />
				<port id="1" precision="FP32" />
			</input>
			<output>
				<port id="2" precision="FP32" />
			</output>
		</layer>
		<layer id="247" name="Round_947" type="Round" version="opset5">
			<data mode="half_to_even" />
			<input>
				<port id="0" precision="FP32" />
			</input>
			<output>
				<port id="1" precision="FP32" />
			</output>
		</layer>
		<layer id="248" name="Clamp_948" type="Clamp" version="opset1">
			<data min="0" max="255" />
			<input>
				<port id="0" precision="FP32" />
			</input>
			<output>
				<port id="1" precision="FP32" />
			</output>
		</layer>
		<layer id="249" name="/model.2/cv2/act/Mul_output_0_QuantizeLinear_/model.2/cv2/act/Mul_output_0_zero_point" type="Convert" version="opset1">
			<data destination_type="u8" />
			<input>
				<port id="0" precision="FP32" />
			</input>
			<output>
				<port id="1" precision="U8" names="/model.2/cv2/act/Mul_output_0_zero_point" />
			</output>
		</layer>
		<layer id="250" name="Convert_953" type="Convert" version="opset1">
			<data destination_type="f32" />
			<input>
				<port id="0" precision="U8" />
			</input>
			<output>
				<port id="1" precision="FP32" />
			</output>
		</layer>
		<layer id="251" name="Add_954" type="Add" version="opset1">
			<data auto_broadcast="numpy" />
			<input>
				<port id="0" precision="FP32">
					<dim>1</dim>
					<dim>32</dim>
					<dim>160</dim>
					<dim>160</dim>
				</port>
				<port id="1" precision="FP32" />
			</input>
			<output>
				<port id="2" precision="FP32">
					<dim>1</dim>
					<dim>32</dim>
					<dim>160</dim>
					<dim>160</dim>
				</port>
			</output>
		</layer>
		<layer id="252" name="Clamp_955" type="Clamp" version="opset1">
			<data min="0" max="255" />
			<input>
				<port id="0" precision="FP32">
					<dim>1</dim>
					<dim>32</dim>
					<dim>160</dim>
					<dim>160</dim>
				</port>
			</input>
			<output>
				<port id="1" precision="FP32">
					<dim>1</dim>
					<dim>32</dim>
					<dim>160</dim>
					<dim>160</dim>
				</port>
			</output>
		</layer>
		<layer id="253" name="/model.2/cv2/act/Mul_output_0_QuantizeLinear_/model.2/cv2/act/Mul_output_0_quantized" type="Convert" version="opset1">
			<data destination_type="u8" />
			<input>
				<port id="0" precision="FP32">
					<dim>1</dim>
					<dim>32</dim>
					<dim>160</dim>
					<dim>160</dim>
				</port>
			</input>
			<output>
				<port id="1" precision="U8" names="/model.2/cv2/act/Mul_output_0_quantized">
					<dim>1</dim>
					<dim>32</dim>
					<dim>160</dim>
					<dim>160</dim>
				</port>
			</output>
		</layer>
		<layer id="254" name="Convert_958" type="Convert" version="opset1">
			<data destination_type="i32" />
			<input>
				<port id="0" precision="U8">
					<dim>1</dim>
					<dim>32</dim>
					<dim>160</dim>
					<dim>160</dim>
				</port>
			</input>
			<output>
				<port id="1" precision="I32">
					<dim>1</dim>
					<dim>32</dim>
					<dim>160</dim>
					<dim>160</dim>
				</port>
			</output>
		</layer>
		<layer id="255" name="Convert_960" type="Convert" version="opset1">
			<data destination_type="i32" />
			<input>
				<port id="0" precision="U8" />
			</input>
			<output>
				<port id="1" precision="I32" />
			</output>
		</layer>
		<layer id="256" name="Subtract_962" type="Subtract" version="opset1">
			<data auto_broadcast="numpy" />
			<input>
				<port id="0" precision="I32">
					<dim>1</dim>
					<dim>32</dim>
					<dim>160</dim>
					<dim>160</dim>
				</port>
				<port id="1" precision="I32" />
			</input>
			<output>
				<port id="2" precision="I32">
					<dim>1</dim>
					<dim>32</dim>
					<dim>160</dim>
					<dim>160</dim>
				</port>
			</output>
		</layer>
		<layer id="257" name="Subtract_963" type="Const" version="opset1">
			<data element_type="i32" shape="64, 32, 3, 3" offset="116700" size="73728" />
			<output>
				<port id="0" precision="I32">
					<dim>64</dim>
					<dim>32</dim>
					<dim>3</dim>
					<dim>3</dim>
				</port>
			</output>
		</layer>
		<layer id="258" name="/model.3/conv/Conv_quant" type="Convolution" version="opset1">
			<data strides="2, 2" dilations="1, 1" pads_begin="1, 1" pads_end="1, 1" auto_pad="explicit" />
			<input>
				<port id="0" precision="I32">
					<dim>1</dim>
					<dim>32</dim>
					<dim>160</dim>
					<dim>160</dim>
				</port>
				<port id="1" precision="I32">
					<dim>64</dim>
					<dim>32</dim>
					<dim>3</dim>
					<dim>3</dim>
				</port>
			</input>
			<output>
				<port id="2" precision="I32" names="/model.3/conv/Conv_output_0_output_quantized">
					<dim>1</dim>
					<dim>64</dim>
					<dim>80</dim>
					<dim>80</dim>
				</port>
			</output>
		</layer>
		<layer id="259" name="/model.3/conv/Conv_output_0_output_quantized_cast" type="Convert" version="opset1">
			<data destination_type="f32" />
			<input>
				<port id="0" precision="I32">
					<dim>1</dim>
					<dim>64</dim>
					<dim>80</dim>
					<dim>80</dim>
				</port>
			</input>
			<output>
				<port id="1" precision="FP32" names="/model.3/conv/Conv_output_0_output_quantized_cast_output">
					<dim>1</dim>
					<dim>64</dim>
					<dim>80</dim>
					<dim>80</dim>
				</port>
			</output>
		</layer>
		<layer id="260" name="model.3.conv.weight_scale" type="Const" version="opset1">
			<data element_type="f32" shape="" offset="190428" size="4" />
			<output>
				<port id="0" precision="FP32" names="model.3.conv.weight_scale" />
			</output>
		</layer>
		<layer id="261" name="/model.3/conv/Conv_quant_scales_mul" type="Multiply" version="opset1">
			<data auto_broadcast="numpy" />
			<input>
				<port id="0" precision="FP32" />
				<port id="1" precision="FP32" />
			</input>
			<output>
				<port id="2" precision="FP32" names="/model.3/conv/Conv_quant_scales_mul:0" />
			</output>
		</layer>
		<layer id="262" name="/model.3/conv/Conv_quant_output_scale_mul" type="Multiply" version="opset1">
			<data auto_broadcast="numpy" />
			<input>
				<port id="0" precision="FP32">
					<dim>1</dim>
					<dim>64</dim>
					<dim>80</dim>
					<dim>80</dim>
				</port>
				<port id="1" precision="FP32" />
			</input>
			<output>
				<port id="2" precision="FP32" names="/model.3/conv/Conv_output_0quant_scaled_output">
					<dim>1</dim>
					<dim>64</dim>
					<dim>80</dim>
					<dim>80</dim>
				</port>
			</output>
		</layer>
		<layer id="263" name="/model.3/conv/Conv_output_0_bias_reshape_output" type="Const" version="opset1">
			<data element_type="f32" shape="1, 64, 1, 1" offset="190432" size="256" />
			<output>
				<port id="0" precision="FP32" names="/model.3/conv/Conv_output_0_bias_reshape_output">
					<dim>1</dim>
					<dim>64</dim>
					<dim>1</dim>
					<dim>1</dim>
				</port>
			</output>
		</layer>
		<layer id="264" name="/model.3/conv/Conv_output_0_bias_add" type="Add" version="opset1">
			<data auto_broadcast="numpy" />
			<input>
				<port id="0" precision="FP32">
					<dim>1</dim>
					<dim>64</dim>
					<dim>80</dim>
					<dim>80</dim>
				</port>
				<port id="1" precision="FP32">
					<dim>1</dim>
					<dim>64</dim>
					<dim>1</dim>
					<dim>1</dim>
				</port>
			</input>
			<output>
				<port id="2" precision="FP32" names="/model.3/conv/Conv_output_0">
					<dim>1</dim>
					<dim>64</dim>
					<dim>80</dim>
					<dim>80</dim>
				</port>
			</output>
		</layer>
		<layer id="265" name="/model.3/act/Mul" type="Swish" version="opset4">
			<input>
				<port id="0" precision="FP32">
					<dim>1</dim>
					<dim>64</dim>
					<dim>80</dim>
					<dim>80</dim>
				</port>
			</input>
			<output>
				<port id="1" precision="FP32" names="/model.3/act/Mul_output_0">
					<dim>1</dim>
					<dim>64</dim>
					<dim>80</dim>
					<dim>80</dim>
				</port>
			</output>
		</layer>
		<layer id="266" name="Constant_7256" type="Const" version="opset1">
			<data element_type="f32" shape="1, 1, 1, 1" offset="67200" size="4" />
			<output>
				<port id="0" precision="FP32">
					<dim>1</dim>
					<dim>1</dim>
					<dim>1</dim>
					<dim>1</dim>
				</port>
			</output>
		</layer>
		<layer id="267" name="Multiply_1002" type="Multiply" version="opset1">
			<data auto_broadcast="numpy" />
			<input>
				<port id="0" precision="FP32">
					<dim>1</dim>
					<dim>64</dim>
					<dim>80</dim>
					<dim>80</dim>
				</port>
				<port id="1" precision="FP32">
					<dim>1</dim>
					<dim>1</dim>
					<dim>1</dim>
					<dim>1</dim>
				</port>
			</input>
			<output>
				<port id="2" precision="FP32">
					<dim>1</dim>
					<dim>64</dim>
					<dim>80</dim>
					<dim>80</dim>
				</port>
			</output>
		</layer>
		<layer id="268" name="Constant_982" type="Const" version="opset1">
			<data element_type="f32" shape="" offset="67204" size="4" />
			<output>
				<port id="0" precision="FP32" />
			</output>
		</layer>
		<layer id="269" name="Range_978" type="Const" version="opset1">
			<data element_type="i64" shape="4" offset="67208" size="32" />
			<output>
				<port id="0" precision="I64">
					<dim>4</dim>
				</port>
			</output>
		</layer>
		<layer id="270" name="ReduceMax_980" type="ReduceMax" version="opset1">
			<data keep_dims="false" />
			<input>
				<port id="0" precision="FP32">
					<dim>1</dim>
					<dim>64</dim>
					<dim>80</dim>
					<dim>80</dim>
				</port>
				<port id="1" precision="I64">
					<dim>4</dim>
				</port>
			</input>
			<output>
				<port id="2" precision="FP32" />
			</output>
		</layer>
		<layer id="271" name="Maximum_983" type="Maximum" version="opset1">
			<data auto_broadcast="numpy" />
			<input>
				<port id="0" precision="FP32" />
				<port id="1" precision="FP32" />
			</input>
			<output>
				<port id="2" precision="FP32" />
			</output>
		</layer>
		<layer id="272" name="Constant_993" type="Const" version="opset1">
			<data element_type="f32" shape="" offset="67204" size="4" />
			<output>
				<port id="0" precision="FP32" />
			</output>
		</layer>
		<layer id="273" name="Range_989" type="Const" version="opset1">
			<data element_type="i64" shape="4" offset="67208" size="32" />
			<output>
				<port id="0" precision="I64">
					<dim>4</dim>
				</port>
			</output>
		</layer>
		<layer id="274" name="ReduceMin_991" type="ReduceMin" version="opset1">
			<data keep_dims="false" />
			<input>
				<port id="0" precision="FP32">
					<dim>1</dim>
					<dim>64</dim>
					<dim>80</dim>
					<dim>80</dim>
				</port>
				<port id="1" precision="I64">
					<dim>4</dim>
				</port>
			</input>
			<output>
				<port id="2" precision="FP32" />
			</output>
		</layer>
		<layer id="275" name="Minimum_994" type="Minimum" version="opset1">
			<data auto_broadcast="numpy" />
			<input>
				<port id="0" precision="FP32" />
				<port id="1" precision="FP32" />
			</input>
			<output>
				<port id="2" precision="FP32" />
			</output>
		</layer>
		<layer id="276" name="Subtract_995" type="Subtract" version="opset1">
			<data auto_broadcast="numpy" />
			<input>
				<port id="0" precision="FP32" />
				<port id="1" precision="FP32" />
			</input>
			<output>
				<port id="2" precision="FP32" />
			</output>
		</layer>
		<layer id="277" name="Divide_1003" type="Divide" version="opset1">
			<data auto_broadcast="numpy" m_pythondiv="true" />
			<input>
				<port id="0" precision="FP32">
					<dim>1</dim>
					<dim>64</dim>
					<dim>80</dim>
					<dim>80</dim>
				</port>
				<port id="1" precision="FP32" />
			</input>
			<output>
				<port id="2" precision="FP32">
					<dim>1</dim>
					<dim>64</dim>
					<dim>80</dim>
					<dim>80</dim>
				</port>
			</output>
		</layer>
		<layer id="278" name="Round_1004" type="Round" version="opset5">
			<data mode="half_to_even" />
			<input>
				<port id="0" precision="FP32">
					<dim>1</dim>
					<dim>64</dim>
					<dim>80</dim>
					<dim>80</dim>
				</port>
			</input>
			<output>
				<port id="1" precision="FP32">
					<dim>1</dim>
					<dim>64</dim>
					<dim>80</dim>
					<dim>80</dim>
				</port>
			</output>
		</layer>
		<layer id="279" name="Constant_970" type="Const" version="opset1">
			<data element_type="f32" shape="" offset="67204" size="4" />
			<output>
				<port id="0" precision="FP32" />
			</output>
		</layer>
		<layer id="280" name="Subtract_997" type="Subtract" version="opset1">
			<data auto_broadcast="numpy" />
			<input>
				<port id="0" precision="FP32" />
				<port id="1" precision="FP32" />
			</input>
			<output>
				<port id="2" precision="FP32" />
			</output>
		</layer>
		<layer id="281" name="Constant_6981" type="Const" version="opset1">
			<data element_type="f32" shape="" offset="67240" size="4" />
			<output>
				<port id="0" precision="FP32" />
			</output>
		</layer>
		<layer id="282" name="/model.3/act/Mul_output_0_QuantizeLinear_/model.3/act/Mul_output_0_scale" type="Multiply" version="opset1">
			<data auto_broadcast="numpy" />
			<input>
				<port id="0" precision="FP32" />
				<port id="1" precision="FP32" />
			</input>
			<output>
				<port id="2" precision="FP32" names="/model.3/act/Mul_output_0_scale" />
			</output>
		</layer>
		<layer id="283" name="Divide_998" type="Divide" version="opset1">
			<data auto_broadcast="numpy" m_pythondiv="true" />
			<input>
				<port id="0" precision="FP32" />
				<port id="1" precision="FP32" />
			</input>
			<output>
				<port id="2" precision="FP32" />
			</output>
		</layer>
		<layer id="284" name="Round_999" type="Round" version="opset5">
			<data mode="half_to_even" />
			<input>
				<port id="0" precision="FP32" />
			</input>
			<output>
				<port id="1" precision="FP32" />
			</output>
		</layer>
		<layer id="285" name="Clamp_1000" type="Clamp" version="opset1">
			<data min="0" max="255" />
			<input>
				<port id="0" precision="FP32" />
			</input>
			<output>
				<port id="1" precision="FP32" />
			</output>
		</layer>
		<layer id="286" name="/model.3/act/Mul_output_0_QuantizeLinear_/model.3/act/Mul_output_0_zero_point" type="Convert" version="opset1">
			<data destination_type="u8" />
			<input>
				<port id="0" precision="FP32" />
			</input>
			<output>
				<port id="1" precision="U8" names="/model.3/act/Mul_output_0_zero_point" />
			</output>
		</layer>
		<layer id="287" name="Convert_1005" type="Convert" version="opset1">
			<data destination_type="f32" />
			<input>
				<port id="0" precision="U8" />
			</input>
			<output>
				<port id="1" precision="FP32" />
			</output>
		</layer>
		<layer id="288" name="Add_1006" type="Add" version="opset1">
			<data auto_broadcast="numpy" />
			<input>
				<port id="0" precision="FP32">
					<dim>1</dim>
					<dim>64</dim>
					<dim>80</dim>
					<dim>80</dim>
				</port>
				<port id="1" precision="FP32" />
			</input>
			<output>
				<port id="2" precision="FP32">
					<dim>1</dim>
					<dim>64</dim>
					<dim>80</dim>
					<dim>80</dim>
				</port>
			</output>
		</layer>
		<layer id="289" name="Clamp_1007" type="Clamp" version="opset1">
			<data min="0" max="255" />
			<input>
				<port id="0" precision="FP32">
					<dim>1</dim>
					<dim>64</dim>
					<dim>80</dim>
					<dim>80</dim>
				</port>
			</input>
			<output>
				<port id="1" precision="FP32">
					<dim>1</dim>
					<dim>64</dim>
					<dim>80</dim>
					<dim>80</dim>
				</port>
			</output>
		</layer>
		<layer id="290" name="/model.3/act/Mul_output_0_QuantizeLinear_/model.3/act/Mul_output_0_quantized" type="Convert" version="opset1">
			<data destination_type="u8" />
			<input>
				<port id="0" precision="FP32">
					<dim>1</dim>
					<dim>64</dim>
					<dim>80</dim>
					<dim>80</dim>
				</port>
			</input>
			<output>
				<port id="1" precision="U8" names="/model.3/act/Mul_output_0_quantized">
					<dim>1</dim>
					<dim>64</dim>
					<dim>80</dim>
					<dim>80</dim>
				</port>
			</output>
		</layer>
		<layer id="291" name="Convert_1010" type="Convert" version="opset1">
			<data destination_type="i32" />
			<input>
				<port id="0" precision="U8">
					<dim>1</dim>
					<dim>64</dim>
					<dim>80</dim>
					<dim>80</dim>
				</port>
			</input>
			<output>
				<port id="1" precision="I32">
					<dim>1</dim>
					<dim>64</dim>
					<dim>80</dim>
					<dim>80</dim>
				</port>
			</output>
		</layer>
		<layer id="292" name="Convert_1012" type="Convert" version="opset1">
			<data destination_type="i32" />
			<input>
				<port id="0" precision="U8" />
			</input>
			<output>
				<port id="1" precision="I32" />
			</output>
		</layer>
		<layer id="293" name="Subtract_1014" type="Subtract" version="opset1">
			<data auto_broadcast="numpy" />
			<input>
				<port id="0" precision="I32">
					<dim>1</dim>
					<dim>64</dim>
					<dim>80</dim>
					<dim>80</dim>
				</port>
				<port id="1" precision="I32" />
			</input>
			<output>
				<port id="2" precision="I32">
					<dim>1</dim>
					<dim>64</dim>
					<dim>80</dim>
					<dim>80</dim>
				</port>
			</output>
		</layer>
		<layer id="294" name="Subtract_1015" type="Const" version="opset1">
			<data element_type="i32" shape="64, 64, 1, 1" offset="190688" size="16384" />
			<output>
				<port id="0" precision="I32">
					<dim>64</dim>
					<dim>64</dim>
					<dim>1</dim>
					<dim>1</dim>
				</port>
			</output>
		</layer>
		<layer id="295" name="/model.4/cv1/conv/Conv_quant" type="Convolution" version="opset1">
			<data strides="1, 1" dilations="1, 1" pads_begin="0, 0" pads_end="0, 0" auto_pad="explicit" />
			<input>
				<port id="0" precision="I32">
					<dim>1</dim>
					<dim>64</dim>
					<dim>80</dim>
					<dim>80</dim>
				</port>
				<port id="1" precision="I32">
					<dim>64</dim>
					<dim>64</dim>
					<dim>1</dim>
					<dim>1</dim>
				</port>
			</input>
			<output>
				<port id="2" precision="I32" names="/model.4/cv1/conv/Conv_output_0_output_quantized">
					<dim>1</dim>
					<dim>64</dim>
					<dim>80</dim>
					<dim>80</dim>
				</port>
			</output>
		</layer>
		<layer id="296" name="/model.4/cv1/conv/Conv_output_0_output_quantized_cast" type="Convert" version="opset1">
			<data destination_type="f32" />
			<input>
				<port id="0" precision="I32">
					<dim>1</dim>
					<dim>64</dim>
					<dim>80</dim>
					<dim>80</dim>
				</port>
			</input>
			<output>
				<port id="1" precision="FP32" names="/model.4/cv1/conv/Conv_output_0_output_quantized_cast_output">
					<dim>1</dim>
					<dim>64</dim>
					<dim>80</dim>
					<dim>80</dim>
				</port>
			</output>
		</layer>
		<layer id="297" name="model.4.cv1.conv.weight_scale" type="Const" version="opset1">
			<data element_type="f32" shape="" offset="207072" size="4" />
			<output>
				<port id="0" precision="FP32" names="model.4.cv1.conv.weight_scale" />
			</output>
		</layer>
		<layer id="298" name="/model.4/cv1/conv/Conv_quant_scales_mul" type="Multiply" version="opset1">
			<data auto_broadcast="numpy" />
			<input>
				<port id="0" precision="FP32" />
				<port id="1" precision="FP32" />
			</input>
			<output>
				<port id="2" precision="FP32" names="/model.4/cv1/conv/Conv_quant_scales_mul:0" />
			</output>
		</layer>
		<layer id="299" name="/model.4/cv1/conv/Conv_quant_output_scale_mul" type="Multiply" version="opset1">
			<data auto_broadcast="numpy" />
			<input>
				<port id="0" precision="FP32">
					<dim>1</dim>
					<dim>64</dim>
					<dim>80</dim>
					<dim>80</dim>
				</port>
				<port id="1" precision="FP32" />
			</input>
			<output>
				<port id="2" precision="FP32" names="/model.4/cv1/conv/Conv_output_0quant_scaled_output">
					<dim>1</dim>
					<dim>64</dim>
					<dim>80</dim>
					<dim>80</dim>
				</port>
			</output>
		</layer>
		<layer id="300" name="/model.4/cv1/conv/Conv_output_0_bias_reshape_output" type="Const" version="opset1">
			<data element_type="f32" shape="1, 64, 1, 1" offset="207076" size="256" />
			<output>
				<port id="0" precision="FP32" names="/model.4/cv1/conv/Conv_output_0_bias_reshape_output">
					<dim>1</dim>
					<dim>64</dim>
					<dim>1</dim>
					<dim>1</dim>
				</port>
			</output>
		</layer>
		<layer id="301" name="/model.4/cv1/conv/Conv_output_0_bias_add" type="Add" version="opset1">
			<data auto_broadcast="numpy" />
			<input>
				<port id="0" precision="FP32">
					<dim>1</dim>
					<dim>64</dim>
					<dim>80</dim>
					<dim>80</dim>
				</port>
				<port id="1" precision="FP32">
					<dim>1</dim>
					<dim>64</dim>
					<dim>1</dim>
					<dim>1</dim>
				</port>
			</input>
			<output>
				<port id="2" precision="FP32" names="/model.4/cv1/conv/Conv_output_0">
					<dim>1</dim>
					<dim>64</dim>
					<dim>80</dim>
					<dim>80</dim>
				</port>
			</output>
		</layer>
		<layer id="302" name="/model.4/cv1/act/Mul" type="Swish" version="opset4">
			<input>
				<port id="0" precision="FP32">
					<dim>1</dim>
					<dim>64</dim>
					<dim>80</dim>
					<dim>80</dim>
				</port>
			</input>
			<output>
				<port id="1" precision="FP32" names="/model.4/cv1/act/Mul_output_0">
					<dim>1</dim>
					<dim>64</dim>
					<dim>80</dim>
					<dim>80</dim>
				</port>
			</output>
		</layer>
		<layer id="303" name="Constant_1022" type="Const" version="opset1">
			<data element_type="i64" shape="" offset="91832" size="8" />
			<output>
				<port id="0" precision="I64" />
			</output>
		</layer>
		<layer id="304" name="ortshared_7_1_2_1_token_182" type="Const" version="opset1">
			<data element_type="i64" shape="2" offset="207332" size="16" />
			<output>
				<port id="0" precision="I64" names="ortshared_7_1_2_1_token_182">
					<dim>2</dim>
				</port>
			</output>
		</layer>
		<layer id="305" name="/model.4/Split" type="VariadicSplit" version="opset1">
			<input>
				<port id="0" precision="FP32">
					<dim>1</dim>
					<dim>64</dim>
					<dim>80</dim>
					<dim>80</dim>
				</port>
				<port id="1" precision="I64" />
				<port id="2" precision="I64">
					<dim>2</dim>
				</port>
			</input>
			<output>
				<port id="3" precision="FP32" names="/model.4/Split_output_0">
					<dim>1</dim>
					<dim>32</dim>
					<dim>80</dim>
					<dim>80</dim>
				</port>
				<port id="4" precision="FP32" names="/model.4/Split_output_1">
					<dim>1</dim>
					<dim>32</dim>
					<dim>80</dim>
					<dim>80</dim>
				</port>
			</output>
		</layer>
		<layer id="306" name="Constant_7257" type="Const" version="opset1">
			<data element_type="f32" shape="1, 1, 1, 1" offset="67200" size="4" />
			<output>
				<port id="0" precision="FP32">
					<dim>1</dim>
					<dim>1</dim>
					<dim>1</dim>
					<dim>1</dim>
				</port>
			</output>
		</layer>
		<layer id="307" name="Multiply_1056" type="Multiply" version="opset1">
			<data auto_broadcast="numpy" />
			<input>
				<port id="0" precision="FP32">
					<dim>1</dim>
					<dim>32</dim>
					<dim>80</dim>
					<dim>80</dim>
				</port>
				<port id="1" precision="FP32">
					<dim>1</dim>
					<dim>1</dim>
					<dim>1</dim>
					<dim>1</dim>
				</port>
			</input>
			<output>
				<port id="2" precision="FP32">
					<dim>1</dim>
					<dim>32</dim>
					<dim>80</dim>
					<dim>80</dim>
				</port>
			</output>
		</layer>
		<layer id="308" name="Constant_1036" type="Const" version="opset1">
			<data element_type="f32" shape="" offset="67204" size="4" />
			<output>
				<port id="0" precision="FP32" />
			</output>
		</layer>
		<layer id="309" name="Range_1032" type="Const" version="opset1">
			<data element_type="i64" shape="4" offset="67208" size="32" />
			<output>
				<port id="0" precision="I64">
					<dim>4</dim>
				</port>
			</output>
		</layer>
		<layer id="310" name="ReduceMax_1034" type="ReduceMax" version="opset1">
			<data keep_dims="false" />
			<input>
				<port id="0" precision="FP32">
					<dim>1</dim>
					<dim>32</dim>
					<dim>80</dim>
					<dim>80</dim>
				</port>
				<port id="1" precision="I64">
					<dim>4</dim>
				</port>
			</input>
			<output>
				<port id="2" precision="FP32" />
			</output>
		</layer>
		<layer id="311" name="Maximum_1037" type="Maximum" version="opset1">
			<data auto_broadcast="numpy" />
			<input>
				<port id="0" precision="FP32" />
				<port id="1" precision="FP32" />
			</input>
			<output>
				<port id="2" precision="FP32" />
			</output>
		</layer>
		<layer id="312" name="Constant_1047" type="Const" version="opset1">
			<data element_type="f32" shape="" offset="67204" size="4" />
			<output>
				<port id="0" precision="FP32" />
			</output>
		</layer>
		<layer id="313" name="Range_1043" type="Const" version="opset1">
			<data element_type="i64" shape="4" offset="67208" size="32" />
			<output>
				<port id="0" precision="I64">
					<dim>4</dim>
				</port>
			</output>
		</layer>
		<layer id="314" name="ReduceMin_1045" type="ReduceMin" version="opset1">
			<data keep_dims="false" />
			<input>
				<port id="0" precision="FP32">
					<dim>1</dim>
					<dim>32</dim>
					<dim>80</dim>
					<dim>80</dim>
				</port>
				<port id="1" precision="I64">
					<dim>4</dim>
				</port>
			</input>
			<output>
				<port id="2" precision="FP32" />
			</output>
		</layer>
		<layer id="315" name="Minimum_1048" type="Minimum" version="opset1">
			<data auto_broadcast="numpy" />
			<input>
				<port id="0" precision="FP32" />
				<port id="1" precision="FP32" />
			</input>
			<output>
				<port id="2" precision="FP32" />
			</output>
		</layer>
		<layer id="316" name="Subtract_1049" type="Subtract" version="opset1">
			<data auto_broadcast="numpy" />
			<input>
				<port id="0" precision="FP32" />
				<port id="1" precision="FP32" />
			</input>
			<output>
				<port id="2" precision="FP32" />
			</output>
		</layer>
		<layer id="317" name="Divide_1057" type="Divide" version="opset1">
			<data auto_broadcast="numpy" m_pythondiv="true" />
			<input>
				<port id="0" precision="FP32">
					<dim>1</dim>
					<dim>32</dim>
					<dim>80</dim>
					<dim>80</dim>
				</port>
				<port id="1" precision="FP32" />
			</input>
			<output>
				<port id="2" precision="FP32">
					<dim>1</dim>
					<dim>32</dim>
					<dim>80</dim>
					<dim>80</dim>
				</port>
			</output>
		</layer>
		<layer id="318" name="Round_1058" type="Round" version="opset5">
			<data mode="half_to_even" />
			<input>
				<port id="0" precision="FP32">
					<dim>1</dim>
					<dim>32</dim>
					<dim>80</dim>
					<dim>80</dim>
				</port>
			</input>
			<output>
				<port id="1" precision="FP32">
					<dim>1</dim>
					<dim>32</dim>
					<dim>80</dim>
					<dim>80</dim>
				</port>
			</output>
		</layer>
		<layer id="319" name="Constant_1024" type="Const" version="opset1">
			<data element_type="f32" shape="" offset="67204" size="4" />
			<output>
				<port id="0" precision="FP32" />
			</output>
		</layer>
		<layer id="320" name="Subtract_1051" type="Subtract" version="opset1">
			<data auto_broadcast="numpy" />
			<input>
				<port id="0" precision="FP32" />
				<port id="1" precision="FP32" />
			</input>
			<output>
				<port id="2" precision="FP32" />
			</output>
		</layer>
		<layer id="321" name="Constant_6985" type="Const" version="opset1">
			<data element_type="f32" shape="" offset="67240" size="4" />
			<output>
				<port id="0" precision="FP32" />
			</output>
		</layer>
		<layer id="322" name="/model.4/Split_output_1_QuantizeLinear_/model.4/Split_output_1_scale" type="Multiply" version="opset1">
			<data auto_broadcast="numpy" />
			<input>
				<port id="0" precision="FP32" />
				<port id="1" precision="FP32" />
			</input>
			<output>
				<port id="2" precision="FP32" names="/model.4/Split_output_1_scale" />
			</output>
		</layer>
		<layer id="323" name="Divide_1052" type="Divide" version="opset1">
			<data auto_broadcast="numpy" m_pythondiv="true" />
			<input>
				<port id="0" precision="FP32" />
				<port id="1" precision="FP32" />
			</input>
			<output>
				<port id="2" precision="FP32" />
			</output>
		</layer>
		<layer id="324" name="Round_1053" type="Round" version="opset5">
			<data mode="half_to_even" />
			<input>
				<port id="0" precision="FP32" />
			</input>
			<output>
				<port id="1" precision="FP32" />
			</output>
		</layer>
		<layer id="325" name="Clamp_1054" type="Clamp" version="opset1">
			<data min="0" max="255" />
			<input>
				<port id="0" precision="FP32" />
			</input>
			<output>
				<port id="1" precision="FP32" />
			</output>
		</layer>
		<layer id="326" name="/model.4/Split_output_1_QuantizeLinear_/model.4/Split_output_1_zero_point" type="Convert" version="opset1">
			<data destination_type="u8" />
			<input>
				<port id="0" precision="FP32" />
			</input>
			<output>
				<port id="1" precision="U8" names="/model.4/Split_output_1_zero_point" />
			</output>
		</layer>
		<layer id="327" name="Convert_1059" type="Convert" version="opset1">
			<data destination_type="f32" />
			<input>
				<port id="0" precision="U8" />
			</input>
			<output>
				<port id="1" precision="FP32" />
			</output>
		</layer>
		<layer id="328" name="Add_1060" type="Add" version="opset1">
			<data auto_broadcast="numpy" />
			<input>
				<port id="0" precision="FP32">
					<dim>1</dim>
					<dim>32</dim>
					<dim>80</dim>
					<dim>80</dim>
				</port>
				<port id="1" precision="FP32" />
			</input>
			<output>
				<port id="2" precision="FP32">
					<dim>1</dim>
					<dim>32</dim>
					<dim>80</dim>
					<dim>80</dim>
				</port>
			</output>
		</layer>
		<layer id="329" name="Clamp_1061" type="Clamp" version="opset1">
			<data min="0" max="255" />
			<input>
				<port id="0" precision="FP32">
					<dim>1</dim>
					<dim>32</dim>
					<dim>80</dim>
					<dim>80</dim>
				</port>
			</input>
			<output>
				<port id="1" precision="FP32">
					<dim>1</dim>
					<dim>32</dim>
					<dim>80</dim>
					<dim>80</dim>
				</port>
			</output>
		</layer>
		<layer id="330" name="/model.4/Split_output_1_QuantizeLinear_/model.4/Split_output_1_quantized" type="Convert" version="opset1">
			<data destination_type="u8" />
			<input>
				<port id="0" precision="FP32">
					<dim>1</dim>
					<dim>32</dim>
					<dim>80</dim>
					<dim>80</dim>
				</port>
			</input>
			<output>
				<port id="1" precision="U8" names="/model.4/Split_output_1_quantized">
					<dim>1</dim>
					<dim>32</dim>
					<dim>80</dim>
					<dim>80</dim>
				</port>
			</output>
		</layer>
		<layer id="331" name="Convert_1064" type="Convert" version="opset1">
			<data destination_type="i32" />
			<input>
				<port id="0" precision="U8">
					<dim>1</dim>
					<dim>32</dim>
					<dim>80</dim>
					<dim>80</dim>
				</port>
			</input>
			<output>
				<port id="1" precision="I32">
					<dim>1</dim>
					<dim>32</dim>
					<dim>80</dim>
					<dim>80</dim>
				</port>
			</output>
		</layer>
		<layer id="332" name="Convert_1066" type="Convert" version="opset1">
			<data destination_type="i32" />
			<input>
				<port id="0" precision="U8" />
			</input>
			<output>
				<port id="1" precision="I32" />
			</output>
		</layer>
		<layer id="333" name="Subtract_1068" type="Subtract" version="opset1">
			<data auto_broadcast="numpy" />
			<input>
				<port id="0" precision="I32">
					<dim>1</dim>
					<dim>32</dim>
					<dim>80</dim>
					<dim>80</dim>
				</port>
				<port id="1" precision="I32" />
			</input>
			<output>
				<port id="2" precision="I32">
					<dim>1</dim>
					<dim>32</dim>
					<dim>80</dim>
					<dim>80</dim>
				</port>
			</output>
		</layer>
		<layer id="334" name="Subtract_1069" type="Const" version="opset1">
			<data element_type="i32" shape="32, 32, 3, 3" offset="207348" size="36864" />
			<output>
				<port id="0" precision="I32">
					<dim>32</dim>
					<dim>32</dim>
					<dim>3</dim>
					<dim>3</dim>
				</port>
			</output>
		</layer>
		<layer id="335" name="/model.4/m.0/cv1/conv/Conv_quant" type="Convolution" version="opset1">
			<data strides="1, 1" dilations="1, 1" pads_begin="1, 1" pads_end="1, 1" auto_pad="explicit" />
			<input>
				<port id="0" precision="I32">
					<dim>1</dim>
					<dim>32</dim>
					<dim>80</dim>
					<dim>80</dim>
				</port>
				<port id="1" precision="I32">
					<dim>32</dim>
					<dim>32</dim>
					<dim>3</dim>
					<dim>3</dim>
				</port>
			</input>
			<output>
				<port id="2" precision="I32" names="/model.4/m.0/cv1/conv/Conv_output_0_output_quantized">
					<dim>1</dim>
					<dim>32</dim>
					<dim>80</dim>
					<dim>80</dim>
				</port>
			</output>
		</layer>
		<layer id="336" name="/model.4/m.0/cv1/conv/Conv_output_0_output_quantized_cast" type="Convert" version="opset1">
			<data destination_type="f32" />
			<input>
				<port id="0" precision="I32">
					<dim>1</dim>
					<dim>32</dim>
					<dim>80</dim>
					<dim>80</dim>
				</port>
			</input>
			<output>
				<port id="1" precision="FP32" names="/model.4/m.0/cv1/conv/Conv_output_0_output_quantized_cast_output">
					<dim>1</dim>
					<dim>32</dim>
					<dim>80</dim>
					<dim>80</dim>
				</port>
			</output>
		</layer>
		<layer id="337" name="model.4.m.0.cv1.conv.weight_scale" type="Const" version="opset1">
			<data element_type="f32" shape="" offset="244212" size="4" />
			<output>
				<port id="0" precision="FP32" names="model.4.m.0.cv1.conv.weight_scale" />
			</output>
		</layer>
		<layer id="338" name="/model.4/m.0/cv1/conv/Conv_quant_scales_mul" type="Multiply" version="opset1">
			<data auto_broadcast="numpy" />
			<input>
				<port id="0" precision="FP32" />
				<port id="1" precision="FP32" />
			</input>
			<output>
				<port id="2" precision="FP32" names="/model.4/m.0/cv1/conv/Conv_quant_scales_mul:0" />
			</output>
		</layer>
		<layer id="339" name="/model.4/m.0/cv1/conv/Conv_quant_output_scale_mul" type="Multiply" version="opset1">
			<data auto_broadcast="numpy" />
			<input>
				<port id="0" precision="FP32">
					<dim>1</dim>
					<dim>32</dim>
					<dim>80</dim>
					<dim>80</dim>
				</port>
				<port id="1" precision="FP32" />
			</input>
			<output>
				<port id="2" precision="FP32" names="/model.4/m.0/cv1/conv/Conv_output_0quant_scaled_output">
					<dim>1</dim>
					<dim>32</dim>
					<dim>80</dim>
					<dim>80</dim>
				</port>
			</output>
		</layer>
		<layer id="340" name="/model.4/m.0/cv1/conv/Conv_output_0_bias_reshape_output" type="Const" version="opset1">
			<data element_type="f32" shape="1, 32, 1, 1" offset="244216" size="128" />
			<output>
				<port id="0" precision="FP32" names="/model.4/m.0/cv1/conv/Conv_output_0_bias_reshape_output">
					<dim>1</dim>
					<dim>32</dim>
					<dim>1</dim>
					<dim>1</dim>
				</port>
			</output>
		</layer>
		<layer id="341" name="/model.4/m.0/cv1/conv/Conv_output_0_bias_add" type="Add" version="opset1">
			<data auto_broadcast="numpy" />
			<input>
				<port id="0" precision="FP32">
					<dim>1</dim>
					<dim>32</dim>
					<dim>80</dim>
					<dim>80</dim>
				</port>
				<port id="1" precision="FP32">
					<dim>1</dim>
					<dim>32</dim>
					<dim>1</dim>
					<dim>1</dim>
				</port>
			</input>
			<output>
				<port id="2" precision="FP32" names="/model.4/m.0/cv1/conv/Conv_output_0">
					<dim>1</dim>
					<dim>32</dim>
					<dim>80</dim>
					<dim>80</dim>
				</port>
			</output>
		</layer>
		<layer id="342" name="/model.4/m.0/cv1/act/Mul" type="Swish" version="opset4">
			<input>
				<port id="0" precision="FP32">
					<dim>1</dim>
					<dim>32</dim>
					<dim>80</dim>
					<dim>80</dim>
				</port>
			</input>
			<output>
				<port id="1" precision="FP32" names="/model.4/m.0/cv1/act/Mul_output_0">
					<dim>1</dim>
					<dim>32</dim>
					<dim>80</dim>
					<dim>80</dim>
				</port>
			</output>
		</layer>
		<layer id="343" name="Constant_7258" type="Const" version="opset1">
			<data element_type="f32" shape="1, 1, 1, 1" offset="67200" size="4" />
			<output>
				<port id="0" precision="FP32">
					<dim>1</dim>
					<dim>1</dim>
					<dim>1</dim>
					<dim>1</dim>
				</port>
			</output>
		</layer>
		<layer id="344" name="Multiply_1108" type="Multiply" version="opset1">
			<data auto_broadcast="numpy" />
			<input>
				<port id="0" precision="FP32">
					<dim>1</dim>
					<dim>32</dim>
					<dim>80</dim>
					<dim>80</dim>
				</port>
				<port id="1" precision="FP32">
					<dim>1</dim>
					<dim>1</dim>
					<dim>1</dim>
					<dim>1</dim>
				</port>
			</input>
			<output>
				<port id="2" precision="FP32">
					<dim>1</dim>
					<dim>32</dim>
					<dim>80</dim>
					<dim>80</dim>
				</port>
			</output>
		</layer>
		<layer id="345" name="Constant_1088" type="Const" version="opset1">
			<data element_type="f32" shape="" offset="67204" size="4" />
			<output>
				<port id="0" precision="FP32" />
			</output>
		</layer>
		<layer id="346" name="Range_1084" type="Const" version="opset1">
			<data element_type="i64" shape="4" offset="67208" size="32" />
			<output>
				<port id="0" precision="I64">
					<dim>4</dim>
				</port>
			</output>
		</layer>
		<layer id="347" name="ReduceMax_1086" type="ReduceMax" version="opset1">
			<data keep_dims="false" />
			<input>
				<port id="0" precision="FP32">
					<dim>1</dim>
					<dim>32</dim>
					<dim>80</dim>
					<dim>80</dim>
				</port>
				<port id="1" precision="I64">
					<dim>4</dim>
				</port>
			</input>
			<output>
				<port id="2" precision="FP32" />
			</output>
		</layer>
		<layer id="348" name="Maximum_1089" type="Maximum" version="opset1">
			<data auto_broadcast="numpy" />
			<input>
				<port id="0" precision="FP32" />
				<port id="1" precision="FP32" />
			</input>
			<output>
				<port id="2" precision="FP32" />
			</output>
		</layer>
		<layer id="349" name="Constant_1099" type="Const" version="opset1">
			<data element_type="f32" shape="" offset="67204" size="4" />
			<output>
				<port id="0" precision="FP32" />
			</output>
		</layer>
		<layer id="350" name="Range_1095" type="Const" version="opset1">
			<data element_type="i64" shape="4" offset="67208" size="32" />
			<output>
				<port id="0" precision="I64">
					<dim>4</dim>
				</port>
			</output>
		</layer>
		<layer id="351" name="ReduceMin_1097" type="ReduceMin" version="opset1">
			<data keep_dims="false" />
			<input>
				<port id="0" precision="FP32">
					<dim>1</dim>
					<dim>32</dim>
					<dim>80</dim>
					<dim>80</dim>
				</port>
				<port id="1" precision="I64">
					<dim>4</dim>
				</port>
			</input>
			<output>
				<port id="2" precision="FP32" />
			</output>
		</layer>
		<layer id="352" name="Minimum_1100" type="Minimum" version="opset1">
			<data auto_broadcast="numpy" />
			<input>
				<port id="0" precision="FP32" />
				<port id="1" precision="FP32" />
			</input>
			<output>
				<port id="2" precision="FP32" />
			</output>
		</layer>
		<layer id="353" name="Subtract_1101" type="Subtract" version="opset1">
			<data auto_broadcast="numpy" />
			<input>
				<port id="0" precision="FP32" />
				<port id="1" precision="FP32" />
			</input>
			<output>
				<port id="2" precision="FP32" />
			</output>
		</layer>
		<layer id="354" name="Divide_1109" type="Divide" version="opset1">
			<data auto_broadcast="numpy" m_pythondiv="true" />
			<input>
				<port id="0" precision="FP32">
					<dim>1</dim>
					<dim>32</dim>
					<dim>80</dim>
					<dim>80</dim>
				</port>
				<port id="1" precision="FP32" />
			</input>
			<output>
				<port id="2" precision="FP32">
					<dim>1</dim>
					<dim>32</dim>
					<dim>80</dim>
					<dim>80</dim>
				</port>
			</output>
		</layer>
		<layer id="355" name="Round_1110" type="Round" version="opset5">
			<data mode="half_to_even" />
			<input>
				<port id="0" precision="FP32">
					<dim>1</dim>
					<dim>32</dim>
					<dim>80</dim>
					<dim>80</dim>
				</port>
			</input>
			<output>
				<port id="1" precision="FP32">
					<dim>1</dim>
					<dim>32</dim>
					<dim>80</dim>
					<dim>80</dim>
				</port>
			</output>
		</layer>
		<layer id="356" name="Constant_1076" type="Const" version="opset1">
			<data element_type="f32" shape="" offset="67204" size="4" />
			<output>
				<port id="0" precision="FP32" />
			</output>
		</layer>
		<layer id="357" name="Subtract_1103" type="Subtract" version="opset1">
			<data auto_broadcast="numpy" />
			<input>
				<port id="0" precision="FP32" />
				<port id="1" precision="FP32" />
			</input>
			<output>
				<port id="2" precision="FP32" />
			</output>
		</layer>
		<layer id="358" name="Constant_6989" type="Const" version="opset1">
			<data element_type="f32" shape="" offset="67240" size="4" />
			<output>
				<port id="0" precision="FP32" />
			</output>
		</layer>
		<layer id="359" name="/model.4/m.0/cv1/act/Mul_output_0_QuantizeLinear_/model.4/m.0/cv1/act/Mul_output_0_scale" type="Multiply" version="opset1">
			<data auto_broadcast="numpy" />
			<input>
				<port id="0" precision="FP32" />
				<port id="1" precision="FP32" />
			</input>
			<output>
				<port id="2" precision="FP32" names="/model.4/m.0/cv1/act/Mul_output_0_scale" />
			</output>
		</layer>
		<layer id="360" name="Divide_1104" type="Divide" version="opset1">
			<data auto_broadcast="numpy" m_pythondiv="true" />
			<input>
				<port id="0" precision="FP32" />
				<port id="1" precision="FP32" />
			</input>
			<output>
				<port id="2" precision="FP32" />
			</output>
		</layer>
		<layer id="361" name="Round_1105" type="Round" version="opset5">
			<data mode="half_to_even" />
			<input>
				<port id="0" precision="FP32" />
			</input>
			<output>
				<port id="1" precision="FP32" />
			</output>
		</layer>
		<layer id="362" name="Clamp_1106" type="Clamp" version="opset1">
			<data min="0" max="255" />
			<input>
				<port id="0" precision="FP32" />
			</input>
			<output>
				<port id="1" precision="FP32" />
			</output>
		</layer>
		<layer id="363" name="/model.4/m.0/cv1/act/Mul_output_0_QuantizeLinear_/model.4/m.0/cv1/act/Mul_output_0_zero_point" type="Convert" version="opset1">
			<data destination_type="u8" />
			<input>
				<port id="0" precision="FP32" />
			</input>
			<output>
				<port id="1" precision="U8" names="/model.4/m.0/cv1/act/Mul_output_0_zero_point" />
			</output>
		</layer>
		<layer id="364" name="Convert_1111" type="Convert" version="opset1">
			<data destination_type="f32" />
			<input>
				<port id="0" precision="U8" />
			</input>
			<output>
				<port id="1" precision="FP32" />
			</output>
		</layer>
		<layer id="365" name="Add_1112" type="Add" version="opset1">
			<data auto_broadcast="numpy" />
			<input>
				<port id="0" precision="FP32">
					<dim>1</dim>
					<dim>32</dim>
					<dim>80</dim>
					<dim>80</dim>
				</port>
				<port id="1" precision="FP32" />
			</input>
			<output>
				<port id="2" precision="FP32">
					<dim>1</dim>
					<dim>32</dim>
					<dim>80</dim>
					<dim>80</dim>
				</port>
			</output>
		</layer>
		<layer id="366" name="Clamp_1113" type="Clamp" version="opset1">
			<data min="0" max="255" />
			<input>
				<port id="0" precision="FP32">
					<dim>1</dim>
					<dim>32</dim>
					<dim>80</dim>
					<dim>80</dim>
				</port>
			</input>
			<output>
				<port id="1" precision="FP32">
					<dim>1</dim>
					<dim>32</dim>
					<dim>80</dim>
					<dim>80</dim>
				</port>
			</output>
		</layer>
		<layer id="367" name="/model.4/m.0/cv1/act/Mul_output_0_QuantizeLinear_/model.4/m.0/cv1/act/Mul_output_0_quantized" type="Convert" version="opset1">
			<data destination_type="u8" />
			<input>
				<port id="0" precision="FP32">
					<dim>1</dim>
					<dim>32</dim>
					<dim>80</dim>
					<dim>80</dim>
				</port>
			</input>
			<output>
				<port id="1" precision="U8" names="/model.4/m.0/cv1/act/Mul_output_0_quantized">
					<dim>1</dim>
					<dim>32</dim>
					<dim>80</dim>
					<dim>80</dim>
				</port>
			</output>
		</layer>
		<layer id="368" name="Convert_1116" type="Convert" version="opset1">
			<data destination_type="i32" />
			<input>
				<port id="0" precision="U8">
					<dim>1</dim>
					<dim>32</dim>
					<dim>80</dim>
					<dim>80</dim>
				</port>
			</input>
			<output>
				<port id="1" precision="I32">
					<dim>1</dim>
					<dim>32</dim>
					<dim>80</dim>
					<dim>80</dim>
				</port>
			</output>
		</layer>
		<layer id="369" name="Convert_1118" type="Convert" version="opset1">
			<data destination_type="i32" />
			<input>
				<port id="0" precision="U8" />
			</input>
			<output>
				<port id="1" precision="I32" />
			</output>
		</layer>
		<layer id="370" name="Subtract_1120" type="Subtract" version="opset1">
			<data auto_broadcast="numpy" />
			<input>
				<port id="0" precision="I32">
					<dim>1</dim>
					<dim>32</dim>
					<dim>80</dim>
					<dim>80</dim>
				</port>
				<port id="1" precision="I32" />
			</input>
			<output>
				<port id="2" precision="I32">
					<dim>1</dim>
					<dim>32</dim>
					<dim>80</dim>
					<dim>80</dim>
				</port>
			</output>
		</layer>
		<layer id="371" name="Subtract_1121" type="Const" version="opset1">
			<data element_type="i32" shape="32, 32, 3, 3" offset="244344" size="36864" />
			<output>
				<port id="0" precision="I32">
					<dim>32</dim>
					<dim>32</dim>
					<dim>3</dim>
					<dim>3</dim>
				</port>
			</output>
		</layer>
		<layer id="372" name="/model.4/m.0/cv2/conv/Conv_quant" type="Convolution" version="opset1">
			<data strides="1, 1" dilations="1, 1" pads_begin="1, 1" pads_end="1, 1" auto_pad="explicit" />
			<input>
				<port id="0" precision="I32">
					<dim>1</dim>
					<dim>32</dim>
					<dim>80</dim>
					<dim>80</dim>
				</port>
				<port id="1" precision="I32">
					<dim>32</dim>
					<dim>32</dim>
					<dim>3</dim>
					<dim>3</dim>
				</port>
			</input>
			<output>
				<port id="2" precision="I32" names="/model.4/m.0/cv2/conv/Conv_output_0_output_quantized">
					<dim>1</dim>
					<dim>32</dim>
					<dim>80</dim>
					<dim>80</dim>
				</port>
			</output>
		</layer>
		<layer id="373" name="/model.4/m.0/cv2/conv/Conv_output_0_output_quantized_cast" type="Convert" version="opset1">
			<data destination_type="f32" />
			<input>
				<port id="0" precision="I32">
					<dim>1</dim>
					<dim>32</dim>
					<dim>80</dim>
					<dim>80</dim>
				</port>
			</input>
			<output>
				<port id="1" precision="FP32" names="/model.4/m.0/cv2/conv/Conv_output_0_output_quantized_cast_output">
					<dim>1</dim>
					<dim>32</dim>
					<dim>80</dim>
					<dim>80</dim>
				</port>
			</output>
		</layer>
		<layer id="374" name="model.4.m.0.cv2.conv.weight_scale" type="Const" version="opset1">
			<data element_type="f32" shape="" offset="281208" size="4" />
			<output>
				<port id="0" precision="FP32" names="model.4.m.0.cv2.conv.weight_scale" />
			</output>
		</layer>
		<layer id="375" name="/model.4/m.0/cv2/conv/Conv_quant_scales_mul" type="Multiply" version="opset1">
			<data auto_broadcast="numpy" />
			<input>
				<port id="0" precision="FP32" />
				<port id="1" precision="FP32" />
			</input>
			<output>
				<port id="2" precision="FP32" names="/model.4/m.0/cv2/conv/Conv_quant_scales_mul:0" />
			</output>
		</layer>
		<layer id="376" name="/model.4/m.0/cv2/conv/Conv_quant_output_scale_mul" type="Multiply" version="opset1">
			<data auto_broadcast="numpy" />
			<input>
				<port id="0" precision="FP32">
					<dim>1</dim>
					<dim>32</dim>
					<dim>80</dim>
					<dim>80</dim>
				</port>
				<port id="1" precision="FP32" />
			</input>
			<output>
				<port id="2" precision="FP32" names="/model.4/m.0/cv2/conv/Conv_output_0quant_scaled_output">
					<dim>1</dim>
					<dim>32</dim>
					<dim>80</dim>
					<dim>80</dim>
				</port>
			</output>
		</layer>
		<layer id="377" name="/model.4/m.0/cv2/conv/Conv_output_0_bias_reshape_output" type="Const" version="opset1">
			<data element_type="f32" shape="1, 32, 1, 1" offset="281212" size="128" />
			<output>
				<port id="0" precision="FP32" names="/model.4/m.0/cv2/conv/Conv_output_0_bias_reshape_output">
					<dim>1</dim>
					<dim>32</dim>
					<dim>1</dim>
					<dim>1</dim>
				</port>
			</output>
		</layer>
		<layer id="378" name="/model.4/m.0/cv2/conv/Conv_output_0_bias_add" type="Add" version="opset1">
			<data auto_broadcast="numpy" />
			<input>
				<port id="0" precision="FP32">
					<dim>1</dim>
					<dim>32</dim>
					<dim>80</dim>
					<dim>80</dim>
				</port>
				<port id="1" precision="FP32">
					<dim>1</dim>
					<dim>32</dim>
					<dim>1</dim>
					<dim>1</dim>
				</port>
			</input>
			<output>
				<port id="2" precision="FP32" names="/model.4/m.0/cv2/conv/Conv_output_0">
					<dim>1</dim>
					<dim>32</dim>
					<dim>80</dim>
					<dim>80</dim>
				</port>
			</output>
		</layer>
		<layer id="379" name="/model.4/m.0/cv2/act/Mul" type="Swish" version="opset4">
			<input>
				<port id="0" precision="FP32">
					<dim>1</dim>
					<dim>32</dim>
					<dim>80</dim>
					<dim>80</dim>
				</port>
			</input>
			<output>
				<port id="1" precision="FP32" names="/model.4/m.0/cv2/act/Mul_output_0">
					<dim>1</dim>
					<dim>32</dim>
					<dim>80</dim>
					<dim>80</dim>
				</port>
			</output>
		</layer>
		<layer id="380" name="/model.4/m.0/Add" type="Add" version="opset1">
			<data auto_broadcast="numpy" />
			<input>
				<port id="0" precision="FP32">
					<dim>1</dim>
					<dim>32</dim>
					<dim>80</dim>
					<dim>80</dim>
				</port>
				<port id="1" precision="FP32">
					<dim>1</dim>
					<dim>32</dim>
					<dim>80</dim>
					<dim>80</dim>
				</port>
			</input>
			<output>
				<port id="2" precision="FP32" names="/model.4/m.0/Add_output_0">
					<dim>1</dim>
					<dim>32</dim>
					<dim>80</dim>
					<dim>80</dim>
				</port>
			</output>
		</layer>
		<layer id="381" name="Constant_7259" type="Const" version="opset1">
			<data element_type="f32" shape="1, 1, 1, 1" offset="67200" size="4" />
			<output>
				<port id="0" precision="FP32">
					<dim>1</dim>
					<dim>1</dim>
					<dim>1</dim>
					<dim>1</dim>
				</port>
			</output>
		</layer>
		<layer id="382" name="Multiply_1161" type="Multiply" version="opset1">
			<data auto_broadcast="numpy" />
			<input>
				<port id="0" precision="FP32">
					<dim>1</dim>
					<dim>32</dim>
					<dim>80</dim>
					<dim>80</dim>
				</port>
				<port id="1" precision="FP32">
					<dim>1</dim>
					<dim>1</dim>
					<dim>1</dim>
					<dim>1</dim>
				</port>
			</input>
			<output>
				<port id="2" precision="FP32">
					<dim>1</dim>
					<dim>32</dim>
					<dim>80</dim>
					<dim>80</dim>
				</port>
			</output>
		</layer>
		<layer id="383" name="Constant_1141" type="Const" version="opset1">
			<data element_type="f32" shape="" offset="67204" size="4" />
			<output>
				<port id="0" precision="FP32" />
			</output>
		</layer>
		<layer id="384" name="Range_1137" type="Const" version="opset1">
			<data element_type="i64" shape="4" offset="67208" size="32" />
			<output>
				<port id="0" precision="I64">
					<dim>4</dim>
				</port>
			</output>
		</layer>
		<layer id="385" name="ReduceMax_1139" type="ReduceMax" version="opset1">
			<data keep_dims="false" />
			<input>
				<port id="0" precision="FP32">
					<dim>1</dim>
					<dim>32</dim>
					<dim>80</dim>
					<dim>80</dim>
				</port>
				<port id="1" precision="I64">
					<dim>4</dim>
				</port>
			</input>
			<output>
				<port id="2" precision="FP32" />
			</output>
		</layer>
		<layer id="386" name="Maximum_1142" type="Maximum" version="opset1">
			<data auto_broadcast="numpy" />
			<input>
				<port id="0" precision="FP32" />
				<port id="1" precision="FP32" />
			</input>
			<output>
				<port id="2" precision="FP32" />
			</output>
		</layer>
		<layer id="387" name="Constant_1152" type="Const" version="opset1">
			<data element_type="f32" shape="" offset="67204" size="4" />
			<output>
				<port id="0" precision="FP32" />
			</output>
		</layer>
		<layer id="388" name="Range_1148" type="Const" version="opset1">
			<data element_type="i64" shape="4" offset="67208" size="32" />
			<output>
				<port id="0" precision="I64">
					<dim>4</dim>
				</port>
			</output>
		</layer>
		<layer id="389" name="ReduceMin_1150" type="ReduceMin" version="opset1">
			<data keep_dims="false" />
			<input>
				<port id="0" precision="FP32">
					<dim>1</dim>
					<dim>32</dim>
					<dim>80</dim>
					<dim>80</dim>
				</port>
				<port id="1" precision="I64">
					<dim>4</dim>
				</port>
			</input>
			<output>
				<port id="2" precision="FP32" />
			</output>
		</layer>
		<layer id="390" name="Minimum_1153" type="Minimum" version="opset1">
			<data auto_broadcast="numpy" />
			<input>
				<port id="0" precision="FP32" />
				<port id="1" precision="FP32" />
			</input>
			<output>
				<port id="2" precision="FP32" />
			</output>
		</layer>
		<layer id="391" name="Subtract_1154" type="Subtract" version="opset1">
			<data auto_broadcast="numpy" />
			<input>
				<port id="0" precision="FP32" />
				<port id="1" precision="FP32" />
			</input>
			<output>
				<port id="2" precision="FP32" />
			</output>
		</layer>
		<layer id="392" name="Divide_1162" type="Divide" version="opset1">
			<data auto_broadcast="numpy" m_pythondiv="true" />
			<input>
				<port id="0" precision="FP32">
					<dim>1</dim>
					<dim>32</dim>
					<dim>80</dim>
					<dim>80</dim>
				</port>
				<port id="1" precision="FP32" />
			</input>
			<output>
				<port id="2" precision="FP32">
					<dim>1</dim>
					<dim>32</dim>
					<dim>80</dim>
					<dim>80</dim>
				</port>
			</output>
		</layer>
		<layer id="393" name="Round_1163" type="Round" version="opset5">
			<data mode="half_to_even" />
			<input>
				<port id="0" precision="FP32">
					<dim>1</dim>
					<dim>32</dim>
					<dim>80</dim>
					<dim>80</dim>
				</port>
			</input>
			<output>
				<port id="1" precision="FP32">
					<dim>1</dim>
					<dim>32</dim>
					<dim>80</dim>
					<dim>80</dim>
				</port>
			</output>
		</layer>
		<layer id="394" name="Constant_1129" type="Const" version="opset1">
			<data element_type="f32" shape="" offset="67204" size="4" />
			<output>
				<port id="0" precision="FP32" />
			</output>
		</layer>
		<layer id="395" name="Subtract_1156" type="Subtract" version="opset1">
			<data auto_broadcast="numpy" />
			<input>
				<port id="0" precision="FP32" />
				<port id="1" precision="FP32" />
			</input>
			<output>
				<port id="2" precision="FP32" />
			</output>
		</layer>
		<layer id="396" name="Constant_6993" type="Const" version="opset1">
			<data element_type="f32" shape="" offset="67240" size="4" />
			<output>
				<port id="0" precision="FP32" />
			</output>
		</layer>
		<layer id="397" name="/model.4/m.0/Add_output_0_QuantizeLinear_/model.4/m.0/Add_output_0_scale" type="Multiply" version="opset1">
			<data auto_broadcast="numpy" />
			<input>
				<port id="0" precision="FP32" />
				<port id="1" precision="FP32" />
			</input>
			<output>
				<port id="2" precision="FP32" names="/model.4/m.0/Add_output_0_scale" />
			</output>
		</layer>
		<layer id="398" name="Divide_1157" type="Divide" version="opset1">
			<data auto_broadcast="numpy" m_pythondiv="true" />
			<input>
				<port id="0" precision="FP32" />
				<port id="1" precision="FP32" />
			</input>
			<output>
				<port id="2" precision="FP32" />
			</output>
		</layer>
		<layer id="399" name="Round_1158" type="Round" version="opset5">
			<data mode="half_to_even" />
			<input>
				<port id="0" precision="FP32" />
			</input>
			<output>
				<port id="1" precision="FP32" />
			</output>
		</layer>
		<layer id="400" name="Clamp_1159" type="Clamp" version="opset1">
			<data min="0" max="255" />
			<input>
				<port id="0" precision="FP32" />
			</input>
			<output>
				<port id="1" precision="FP32" />
			</output>
		</layer>
		<layer id="401" name="/model.4/m.0/Add_output_0_QuantizeLinear_/model.4/m.0/Add_output_0_zero_point" type="Convert" version="opset1">
			<data destination_type="u8" />
			<input>
				<port id="0" precision="FP32" />
			</input>
			<output>
				<port id="1" precision="U8" names="/model.4/m.0/Add_output_0_zero_point" />
			</output>
		</layer>
		<layer id="402" name="Convert_1164" type="Convert" version="opset1">
			<data destination_type="f32" />
			<input>
				<port id="0" precision="U8" />
			</input>
			<output>
				<port id="1" precision="FP32" />
			</output>
		</layer>
		<layer id="403" name="Add_1165" type="Add" version="opset1">
			<data auto_broadcast="numpy" />
			<input>
				<port id="0" precision="FP32">
					<dim>1</dim>
					<dim>32</dim>
					<dim>80</dim>
					<dim>80</dim>
				</port>
				<port id="1" precision="FP32" />
			</input>
			<output>
				<port id="2" precision="FP32">
					<dim>1</dim>
					<dim>32</dim>
					<dim>80</dim>
					<dim>80</dim>
				</port>
			</output>
		</layer>
		<layer id="404" name="Clamp_1166" type="Clamp" version="opset1">
			<data min="0" max="255" />
			<input>
				<port id="0" precision="FP32">
					<dim>1</dim>
					<dim>32</dim>
					<dim>80</dim>
					<dim>80</dim>
				</port>
			</input>
			<output>
				<port id="1" precision="FP32">
					<dim>1</dim>
					<dim>32</dim>
					<dim>80</dim>
					<dim>80</dim>
				</port>
			</output>
		</layer>
		<layer id="405" name="/model.4/m.0/Add_output_0_QuantizeLinear_/model.4/m.0/Add_output_0_quantized" type="Convert" version="opset1">
			<data destination_type="u8" />
			<input>
				<port id="0" precision="FP32">
					<dim>1</dim>
					<dim>32</dim>
					<dim>80</dim>
					<dim>80</dim>
				</port>
			</input>
			<output>
				<port id="1" precision="U8" names="/model.4/m.0/Add_output_0_quantized">
					<dim>1</dim>
					<dim>32</dim>
					<dim>80</dim>
					<dim>80</dim>
				</port>
			</output>
		</layer>
		<layer id="406" name="Convert_1169" type="Convert" version="opset1">
			<data destination_type="i32" />
			<input>
				<port id="0" precision="U8">
					<dim>1</dim>
					<dim>32</dim>
					<dim>80</dim>
					<dim>80</dim>
				</port>
			</input>
			<output>
				<port id="1" precision="I32">
					<dim>1</dim>
					<dim>32</dim>
					<dim>80</dim>
					<dim>80</dim>
				</port>
			</output>
		</layer>
		<layer id="407" name="Convert_1171" type="Convert" version="opset1">
			<data destination_type="i32" />
			<input>
				<port id="0" precision="U8" />
			</input>
			<output>
				<port id="1" precision="I32" />
			</output>
		</layer>
		<layer id="408" name="Subtract_1173" type="Subtract" version="opset1">
			<data auto_broadcast="numpy" />
			<input>
				<port id="0" precision="I32">
					<dim>1</dim>
					<dim>32</dim>
					<dim>80</dim>
					<dim>80</dim>
				</port>
				<port id="1" precision="I32" />
			</input>
			<output>
				<port id="2" precision="I32">
					<dim>1</dim>
					<dim>32</dim>
					<dim>80</dim>
					<dim>80</dim>
				</port>
			</output>
		</layer>
		<layer id="409" name="Subtract_1174" type="Const" version="opset1">
			<data element_type="i32" shape="32, 32, 3, 3" offset="281340" size="36864" />
			<output>
				<port id="0" precision="I32">
					<dim>32</dim>
					<dim>32</dim>
					<dim>3</dim>
					<dim>3</dim>
				</port>
			</output>
		</layer>
		<layer id="410" name="/model.4/m.1/cv1/conv/Conv_quant" type="Convolution" version="opset1">
			<data strides="1, 1" dilations="1, 1" pads_begin="1, 1" pads_end="1, 1" auto_pad="explicit" />
			<input>
				<port id="0" precision="I32">
					<dim>1</dim>
					<dim>32</dim>
					<dim>80</dim>
					<dim>80</dim>
				</port>
				<port id="1" precision="I32">
					<dim>32</dim>
					<dim>32</dim>
					<dim>3</dim>
					<dim>3</dim>
				</port>
			</input>
			<output>
				<port id="2" precision="I32" names="/model.4/m.1/cv1/conv/Conv_output_0_output_quantized">
					<dim>1</dim>
					<dim>32</dim>
					<dim>80</dim>
					<dim>80</dim>
				</port>
			</output>
		</layer>
		<layer id="411" name="/model.4/m.1/cv1/conv/Conv_output_0_output_quantized_cast" type="Convert" version="opset1">
			<data destination_type="f32" />
			<input>
				<port id="0" precision="I32">
					<dim>1</dim>
					<dim>32</dim>
					<dim>80</dim>
					<dim>80</dim>
				</port>
			</input>
			<output>
				<port id="1" precision="FP32" names="/model.4/m.1/cv1/conv/Conv_output_0_output_quantized_cast_output">
					<dim>1</dim>
					<dim>32</dim>
					<dim>80</dim>
					<dim>80</dim>
				</port>
			</output>
		</layer>
		<layer id="412" name="model.4.m.1.cv1.conv.weight_scale" type="Const" version="opset1">
			<data element_type="f32" shape="" offset="318204" size="4" />
			<output>
				<port id="0" precision="FP32" names="model.4.m.1.cv1.conv.weight_scale" />
			</output>
		</layer>
		<layer id="413" name="/model.4/m.1/cv1/conv/Conv_quant_scales_mul" type="Multiply" version="opset1">
			<data auto_broadcast="numpy" />
			<input>
				<port id="0" precision="FP32" />
				<port id="1" precision="FP32" />
			</input>
			<output>
				<port id="2" precision="FP32" names="/model.4/m.1/cv1/conv/Conv_quant_scales_mul:0" />
			</output>
		</layer>
		<layer id="414" name="/model.4/m.1/cv1/conv/Conv_quant_output_scale_mul" type="Multiply" version="opset1">
			<data auto_broadcast="numpy" />
			<input>
				<port id="0" precision="FP32">
					<dim>1</dim>
					<dim>32</dim>
					<dim>80</dim>
					<dim>80</dim>
				</port>
				<port id="1" precision="FP32" />
			</input>
			<output>
				<port id="2" precision="FP32" names="/model.4/m.1/cv1/conv/Conv_output_0quant_scaled_output">
					<dim>1</dim>
					<dim>32</dim>
					<dim>80</dim>
					<dim>80</dim>
				</port>
			</output>
		</layer>
		<layer id="415" name="/model.4/m.1/cv1/conv/Conv_output_0_bias_reshape_output" type="Const" version="opset1">
			<data element_type="f32" shape="1, 32, 1, 1" offset="318208" size="128" />
			<output>
				<port id="0" precision="FP32" names="/model.4/m.1/cv1/conv/Conv_output_0_bias_reshape_output">
					<dim>1</dim>
					<dim>32</dim>
					<dim>1</dim>
					<dim>1</dim>
				</port>
			</output>
		</layer>
		<layer id="416" name="/model.4/m.1/cv1/conv/Conv_output_0_bias_add" type="Add" version="opset1">
			<data auto_broadcast="numpy" />
			<input>
				<port id="0" precision="FP32">
					<dim>1</dim>
					<dim>32</dim>
					<dim>80</dim>
					<dim>80</dim>
				</port>
				<port id="1" precision="FP32">
					<dim>1</dim>
					<dim>32</dim>
					<dim>1</dim>
					<dim>1</dim>
				</port>
			</input>
			<output>
				<port id="2" precision="FP32" names="/model.4/m.1/cv1/conv/Conv_output_0">
					<dim>1</dim>
					<dim>32</dim>
					<dim>80</dim>
					<dim>80</dim>
				</port>
			</output>
		</layer>
		<layer id="417" name="/model.4/m.1/cv1/act/Mul" type="Swish" version="opset4">
			<input>
				<port id="0" precision="FP32">
					<dim>1</dim>
					<dim>32</dim>
					<dim>80</dim>
					<dim>80</dim>
				</port>
			</input>
			<output>
				<port id="1" precision="FP32" names="/model.4/m.1/cv1/act/Mul_output_0">
					<dim>1</dim>
					<dim>32</dim>
					<dim>80</dim>
					<dim>80</dim>
				</port>
			</output>
		</layer>
		<layer id="418" name="Constant_7260" type="Const" version="opset1">
			<data element_type="f32" shape="1, 1, 1, 1" offset="67200" size="4" />
			<output>
				<port id="0" precision="FP32">
					<dim>1</dim>
					<dim>1</dim>
					<dim>1</dim>
					<dim>1</dim>
				</port>
			</output>
		</layer>
		<layer id="419" name="Multiply_1213" type="Multiply" version="opset1">
			<data auto_broadcast="numpy" />
			<input>
				<port id="0" precision="FP32">
					<dim>1</dim>
					<dim>32</dim>
					<dim>80</dim>
					<dim>80</dim>
				</port>
				<port id="1" precision="FP32">
					<dim>1</dim>
					<dim>1</dim>
					<dim>1</dim>
					<dim>1</dim>
				</port>
			</input>
			<output>
				<port id="2" precision="FP32">
					<dim>1</dim>
					<dim>32</dim>
					<dim>80</dim>
					<dim>80</dim>
				</port>
			</output>
		</layer>
		<layer id="420" name="Constant_1193" type="Const" version="opset1">
			<data element_type="f32" shape="" offset="67204" size="4" />
			<output>
				<port id="0" precision="FP32" />
			</output>
		</layer>
…
		<edge from-layer="1992" from-port="2" to-layer="1998" to-port="0" />
		<edge from-layer="1993" from-port="2" to-layer="1994" to-port="0" />
		<edge from-layer="1994" from-port="1" to-layer="2004" to-port="0" />
		<edge from-layer="1995" from-port="0" to-layer="1996" to-port="0" />
		<edge from-layer="1996" from-port="2" to-layer="1999" to-port="0" />
		<edge from-layer="1997" from-port="0" to-layer="1998" to-port="1" />
		<edge from-layer="1998" from-port="2" to-layer="1999" to-port="1" />
		<edge from-layer="1998" from-port="2" to-layer="2014" to-port="0" />
		<edge from-layer="1999" from-port="2" to-layer="2000" to-port="0" />
		<edge from-layer="2000" from-port="1" to-layer="2001" to-port="0" />
		<edge from-layer="2001" from-port="1" to-layer="2002" to-port="0" />
		<edge from-layer="2002" from-port="1" to-layer="2008" to-port="0" />
		<edge from-layer="2002" from-port="1" to-layer="2003" to-port="0" />
		<edge from-layer="2003" from-port="1" to-layer="2004" to-port="1" />
		<edge from-layer="2004" from-port="2" to-layer="2005" to-port="0" />
		<edge from-layer="2005" from-port="1" to-layer="2006" to-port="0" />
		<edge from-layer="2006" from-port="1" to-layer="2007" to-port="0" />
		<edge from-layer="2007" from-port="1" to-layer="2009" to-port="0" />
		<edge from-layer="2008" from-port="1" to-layer="2009" to-port="1" />
		<edge from-layer="2009" from-port="2" to-layer="2011" to-port="0" />
		<edge from-layer="2010" from-port="0" to-layer="2011" to-port="1" />
		<edge from-layer="2011" from-port="2" to-layer="2012" to-port="0" />
		<edge from-layer="2012" from-port="1" to-layer="2015" to-port="0" />
		<edge from-layer="2013" from-port="0" to-layer="2014" to-port="1" />
		<edge from-layer="2014" from-port="2" to-layer="2015" to-port="1" />
		<edge from-layer="2015" from-port="2" to-layer="2017" to-port="0" />
		<edge from-layer="2016" from-port="0" to-layer="2017" to-port="1" />
		<edge from-layer="2017" from-port="2" to-layer="2018" to-port="0" />
		<edge from-layer="2018" from-port="1" to-layer="2019" to-port="2" />
		<edge from-layer="2019" from-port="3" to-layer="2028" to-port="0" />
		<edge from-layer="2019" from-port="3" to-layer="2024" to-port="0" />
		<edge from-layer="2019" from-port="3" to-layer="2021" to-port="0" />
		<edge from-layer="2020" from-port="0" to-layer="2021" to-port="1" />
		<edge from-layer="2021" from-port="2" to-layer="2031" to-port="0" />
		<edge from-layer="2022" from-port="0" to-layer="2025" to-port="0" />
		<edge from-layer="2023" from-port="0" to-layer="2024" to-port="1" />
		<edge from-layer="2024" from-port="2" to-layer="2025" to-port="1" />
		<edge from-layer="2025" from-port="2" to-layer="2030" to-port="0" />
		<edge from-layer="2026" from-port="0" to-layer="2029" to-port="0" />
		<edge from-layer="2027" from-port="0" to-layer="2028" to-port="1" />
		<edge from-layer="2028" from-port="2" to-layer="2029" to-port="1" />
		<edge from-layer="2029" from-port="2" to-layer="2030" to-port="1" />
		<edge from-layer="2029" from-port="2" to-layer="2034" to-port="1" />
		<edge from-layer="2030" from-port="2" to-layer="2031" to-port="1" />
		<edge from-layer="2030" from-port="2" to-layer="2036" to-port="0" />
		<edge from-layer="2031" from-port="2" to-layer="2032" to-port="0" />
		<edge from-layer="2032" from-port="1" to-layer="2042" to-port="0" />
		<edge from-layer="2033" from-port="0" to-layer="2034" to-port="0" />
		<edge from-layer="2034" from-port="2" to-layer="2037" to-port="0" />
		<edge from-layer="2035" from-port="0" to-layer="2036" to-port="1" />
		<edge from-layer="2036" from-port="2" to-layer="2037" to-port="1" />
		<edge from-layer="2036" from-port="2" to-layer="2052" to-port="0" />
		<edge from-layer="2037" from-port="2" to-layer="2038" to-port="0" />
		<edge from-layer="2038" from-port="1" to-layer="2039" to-port="0" />
		<edge from-layer="2039" from-port="1" to-layer="2040" to-port="0" />
		<edge from-layer="2040" from-port="1" to-layer="2041" to-port="0" />
		<edge from-layer="2040" from-port="1" to-layer="2046" to-port="0" />
		<edge from-layer="2041" from-port="1" to-layer="2042" to-port="1" />
		<edge from-layer="2042" from-port="2" to-layer="2043" to-port="0" />
		<edge from-layer="2043" from-port="1" to-layer="2044" to-port="0" />
		<edge from-layer="2044" from-port="1" to-layer="2045" to-port="0" />
		<edge from-layer="2045" from-port="1" to-layer="2047" to-port="0" />
		<edge from-layer="2046" from-port="1" to-layer="2047" to-port="1" />
		<edge from-layer="2047" from-port="2" to-layer="2049" to-port="0" />
		<edge from-layer="2048" from-port="0" to-layer="2049" to-port="1" />
		<edge from-layer="2049" from-port="2" to-layer="2050" to-port="0" />
		<edge from-layer="2050" from-port="1" to-layer="2053" to-port="0" />
		<edge from-layer="2051" from-port="0" to-layer="2052" to-port="1" />
		<edge from-layer="2052" from-port="2" to-layer="2053" to-port="1" />
		<edge from-layer="2053" from-port="2" to-layer="2055" to-port="0" />
		<edge from-layer="2054" from-port="0" to-layer="2055" to-port="1" />
		<edge from-layer="2055" from-port="2" to-layer="2056" to-port="0" />
		<edge from-layer="2056" from-port="1" to-layer="2065" to-port="0" />
		<edge from-layer="2056" from-port="1" to-layer="2058" to-port="0" />
		<edge from-layer="2056" from-port="1" to-layer="2061" to-port="0" />
		<edge from-layer="2057" from-port="0" to-layer="2058" to-port="1" />
		<edge from-layer="2058" from-port="2" to-layer="2068" to-port="0" />
		<edge from-layer="2059" from-port="0" to-layer="2062" to-port="0" />
		<edge from-layer="2060" from-port="0" to-layer="2061" to-port="1" />
		<edge from-layer="2061" from-port="2" to-layer="2062" to-port="1" />
		<edge from-layer="2062" from-port="2" to-layer="2067" to-port="0" />
		<edge from-layer="2063" from-port="0" to-layer="2066" to-port="0" />
		<edge from-layer="2064" from-port="0" to-layer="2065" to-port="1" />
		<edge from-layer="2065" from-port="2" to-layer="2066" to-port="1" />
		<edge from-layer="2066" from-port="2" to-layer="2067" to-port="1" />
		<edge from-layer="2066" from-port="2" to-layer="2071" to-port="1" />
		<edge from-layer="2067" from-port="2" to-layer="2073" to-port="0" />
		<edge from-layer="2067" from-port="2" to-layer="2068" to-port="1" />
		<edge from-layer="2068" from-port="2" to-layer="2069" to-port="0" />
		<edge from-layer="2069" from-port="1" to-layer="2079" to-port="0" />
		<edge from-layer="2070" from-port="0" to-layer="2071" to-port="0" />
		<edge from-layer="2071" from-port="2" to-layer="2074" to-port="0" />
		<edge from-layer="2072" from-port="0" to-layer="2073" to-port="1" />
		<edge from-layer="2073" from-port="2" to-layer="2174" to-port="0" />
		<edge from-layer="2073" from-port="2" to-layer="2074" to-port="1" />
		<edge from-layer="2073" from-port="2" to-layer="2498" to-port="0" />
		<edge from-layer="2073" from-port="2" to-layer="2089" to-port="0" />
		<edge from-layer="2074" from-port="2" to-layer="2075" to-port="0" />
		<edge from-layer="2075" from-port="1" to-layer="2076" to-port="0" />
		<edge from-layer="2076" from-port="1" to-layer="2077" to-port="0" />
		<edge from-layer="2077" from-port="1" to-layer="2083" to-port="0" />
		<edge from-layer="2077" from-port="1" to-layer="2168" to-port="0" />
		<edge from-layer="2077" from-port="1" to-layer="2078" to-port="0" />
		<edge from-layer="2077" from-port="1" to-layer="2492" to-port="0" />
		<edge from-layer="2078" from-port="1" to-layer="2079" to-port="1" />
		<edge from-layer="2079" from-port="2" to-layer="2080" to-port="0" />
		<edge from-layer="2080" from-port="1" to-layer="2081" to-port="0" />
		<edge from-layer="2081" from-port="1" to-layer="2167" to-port="0" />
		<edge from-layer="2081" from-port="1" to-layer="2082" to-port="0" />
		<edge from-layer="2081" from-port="1" to-layer="2491" to-port="0" />
		<edge from-layer="2082" from-port="1" to-layer="2084" to-port="0" />
		<edge from-layer="2083" from-port="1" to-layer="2084" to-port="1" />
		<edge from-layer="2084" from-port="2" to-layer="2086" to-port="0" />
		<edge from-layer="2085" from-port="0" to-layer="2086" to-port="1" />
		<edge from-layer="2086" from-port="2" to-layer="2087" to-port="0" />
		<edge from-layer="2087" from-port="1" to-layer="2090" to-port="0" />
		<edge from-layer="2088" from-port="0" to-layer="2089" to-port="1" />
		<edge from-layer="2089" from-port="2" to-layer="2090" to-port="1" />
		<edge from-layer="2090" from-port="2" to-layer="2092" to-port="0" />
		<edge from-layer="2091" from-port="0" to-layer="2092" to-port="1" />
		<edge from-layer="2092" from-port="2" to-layer="2093" to-port="0" />
		<edge from-layer="2093" from-port="1" to-layer="2102" to-port="0" />
		<edge from-layer="2093" from-port="1" to-layer="2098" to-port="0" />
		<edge from-layer="2093" from-port="1" to-layer="2095" to-port="0" />
		<edge from-layer="2094" from-port="0" to-layer="2095" to-port="1" />
		<edge from-layer="2095" from-port="2" to-layer="2105" to-port="0" />
		<edge from-layer="2096" from-port="0" to-layer="2099" to-port="0" />
		<edge from-layer="2097" from-port="0" to-layer="2098" to-port="1" />
		<edge from-layer="2098" from-port="2" to-layer="2099" to-port="1" />
		<edge from-layer="2099" from-port="2" to-layer="2104" to-port="0" />
		<edge from-layer="2100" from-port="0" to-layer="2103" to-port="0" />
		<edge from-layer="2101" from-port="0" to-layer="2102" to-port="1" />
		<edge from-layer="2102" from-port="2" to-layer="2103" to-port="1" />
		<edge from-layer="2103" from-port="2" to-layer="2104" to-port="1" />
		<edge from-layer="2103" from-port="2" to-layer="2108" to-port="1" />
		<edge from-layer="2104" from-port="2" to-layer="2110" to-port="0" />
		<edge from-layer="2104" from-port="2" to-layer="2105" to-port="1" />
		<edge from-layer="2105" from-port="2" to-layer="2106" to-port="0" />
		<edge from-layer="2106" from-port="1" to-layer="2116" to-port="0" />
		<edge from-layer="2107" from-port="0" to-layer="2108" to-port="0" />
		<edge from-layer="2108" from-port="2" to-layer="2111" to-port="0" />
		<edge from-layer="2109" from-port="0" to-layer="2110" to-port="1" />
		<edge from-layer="2110" from-port="2" to-layer="2126" to-port="0" />
		<edge from-layer="2110" from-port="2" to-layer="2111" to-port="1" />
		<edge from-layer="2111" from-port="2" to-layer="2112" to-port="0" />
		<edge from-layer="2112" from-port="1" to-layer="2113" to-port="0" />
		<edge from-layer="2113" from-port="1" to-layer="2114" to-port="0" />
		<edge from-layer="2114" from-port="1" to-layer="2120" to-port="0" />
		<edge from-layer="2114" from-port="1" to-layer="2115" to-port="0" />
		<edge from-layer="2115" from-port="1" to-layer="2116" to-port="1" />
		<edge from-layer="2116" from-port="2" to-layer="2117" to-port="0" />
		<edge from-layer="2117" from-port="1" to-layer="2118" to-port="0" />
		<edge from-layer="2118" from-port="1" to-layer="2119" to-port="0" />
		<edge from-layer="2119" from-port="1" to-layer="2121" to-port="0" />
		<edge from-layer="2120" from-port="1" to-layer="2121" to-port="1" />
		<edge from-layer="2121" from-port="2" to-layer="2123" to-port="0" />
		<edge from-layer="2122" from-port="0" to-layer="2123" to-port="1" />
		<edge from-layer="2123" from-port="2" to-layer="2124" to-port="0" />
		<edge from-layer="2124" from-port="1" to-layer="2127" to-port="0" />
		<edge from-layer="2125" from-port="0" to-layer="2126" to-port="1" />
		<edge from-layer="2126" from-port="2" to-layer="2127" to-port="1" />
		<edge from-layer="2127" from-port="2" to-layer="2129" to-port="0" />
		<edge from-layer="2128" from-port="0" to-layer="2129" to-port="1" />
		<edge from-layer="2129" from-port="2" to-layer="2130" to-port="0" />
		<edge from-layer="2130" from-port="1" to-layer="2139" to-port="0" />
		<edge from-layer="2130" from-port="1" to-layer="2135" to-port="0" />
		<edge from-layer="2130" from-port="1" to-layer="2132" to-port="0" />
		<edge from-layer="2131" from-port="0" to-layer="2132" to-port="1" />
		<edge from-layer="2132" from-port="2" to-layer="2142" to-port="0" />
		<edge from-layer="2133" from-port="0" to-layer="2136" to-port="0" />
		<edge from-layer="2134" from-port="0" to-layer="2135" to-port="1" />
		<edge from-layer="2135" from-port="2" to-layer="2136" to-port="1" />
		<edge from-layer="2136" from-port="2" to-layer="2141" to-port="0" />
		<edge from-layer="2137" from-port="0" to-layer="2140" to-port="0" />
		<edge from-layer="2138" from-port="0" to-layer="2139" to-port="1" />
		<edge from-layer="2139" from-port="2" to-layer="2140" to-port="1" />
		<edge from-layer="2140" from-port="2" to-layer="2145" to-port="1" />
		<edge from-layer="2140" from-port="2" to-layer="2141" to-port="1" />
		<edge from-layer="2141" from-port="2" to-layer="2147" to-port="0" />
		<edge from-layer="2141" from-port="2" to-layer="2142" to-port="1" />
		<edge from-layer="2142" from-port="2" to-layer="2143" to-port="0" />
		<edge from-layer="2143" from-port="1" to-layer="2153" to-port="0" />
		<edge from-layer="2144" from-port="0" to-layer="2145" to-port="0" />
		<edge from-layer="2145" from-port="2" to-layer="2148" to-port="0" />
		<edge from-layer="2146" from-port="0" to-layer="2147" to-port="1" />
		<edge from-layer="2147" from-port="2" to-layer="2163" to-port="0" />
		<edge from-layer="2147" from-port="2" to-layer="2148" to-port="1" />
		<edge from-layer="2148" from-port="2" to-layer="2149" to-port="0" />
		<edge from-layer="2149" from-port="1" to-layer="2150" to-port="0" />
		<edge from-layer="2150" from-port="1" to-layer="2151" to-port="0" />
		<edge from-layer="2151" from-port="1" to-layer="2157" to-port="0" />
		<edge from-layer="2151" from-port="1" to-layer="2152" to-port="0" />
		<edge from-layer="2152" from-port="1" to-layer="2153" to-port="1" />
		<edge from-layer="2153" from-port="2" to-layer="2154" to-port="0" />
		<edge from-layer="2154" from-port="1" to-layer="2155" to-port="0" />
		<edge from-layer="2155" from-port="1" to-layer="2156" to-port="0" />
		<edge from-layer="2156" from-port="1" to-layer="2158" to-port="0" />
		<edge from-layer="2157" from-port="1" to-layer="2158" to-port="1" />
		<edge from-layer="2158" from-port="2" to-layer="2160" to-port="0" />
		<edge from-layer="2159" from-port="0" to-layer="2160" to-port="1" />
		<edge from-layer="2160" from-port="2" to-layer="2161" to-port="0" />
		<edge from-layer="2161" from-port="1" to-layer="2164" to-port="0" />
		<edge from-layer="2162" from-port="0" to-layer="2163" to-port="1" />
		<edge from-layer="2163" from-port="2" to-layer="2164" to-port="1" />
		<edge from-layer="2164" from-port="2" to-layer="2166" to-port="0" />
		<edge from-layer="2165" from-port="0" to-layer="2166" to-port="1" />
		<edge from-layer="2166" from-port="2" to-layer="2252" to-port="0" />
		<edge from-layer="2167" from-port="1" to-layer="2169" to-port="0" />
		<edge from-layer="2168" from-port="1" to-layer="2169" to-port="1" />
		<edge from-layer="2169" from-port="2" to-layer="2171" to-port="0" />
		<edge from-layer="2170" from-port="0" to-layer="2171" to-port="1" />
		<edge from-layer="2171" from-port="2" to-layer="2172" to-port="0" />
		<edge from-layer="2172" from-port="1" to-layer="2175" to-port="0" />
		<edge from-layer="2173" from-port="0" to-layer="2174" to-port="1" />
		<edge from-layer="2174" from-port="2" to-layer="2175" to-port="1" />
		<edge from-layer="2175" from-port="2" to-layer="2177" to-port="0" />
		<edge from-layer="2176" from-port="0" to-layer="2177" to-port="1" />
		<edge from-layer="2177" from-port="2" to-layer="2178" to-port="0" />
		<edge from-layer="2178" from-port="1" to-layer="2187" to-port="0" />
		<edge from-layer="2178" from-port="1" to-layer="2183" to-port="0" />
		<edge from-layer="2178" from-port="1" to-layer="2180" to-port="0" />
		<edge from-layer="2179" from-port="0" to-layer="2180" to-port="1" />
		<edge from-layer="2180" from-port="2" to-layer="2190" to-port="0" />
		<edge from-layer="2181" from-port="0" to-layer="2184" to-port="0" />
		<edge from-layer="2182" from-port="0" to-layer="2183" to-port="1" />
		<edge from-layer="2183" from-port="2" to-layer="2184" to-port="1" />
		<edge from-layer="2184" from-port="2" to-layer="2189" to-port="0" />
		<edge from-layer="2185" from-port="0" to-layer="2188" to-port="0" />
		<edge from-layer="2186" from-port="0" to-layer="2187" to-port="1" />
		<edge from-layer="2187" from-port="2" to-layer="2188" to-port="1" />
		<edge from-layer="2188" from-port="2" to-layer="2193" to-port="1" />
		<edge from-layer="2188" from-port="2" to-layer="2189" to-port="1" />
		<edge from-layer="2189" from-port="2" to-layer="2195" to-port="0" />
		<edge from-layer="2189" from-port="2" to-layer="2190" to-port="1" />
		<edge from-layer="2190" from-port="2" to-layer="2191" to-port="0" />
		<edge from-layer="2191" from-port="1" to-layer="2201" to-port="0" />
		<edge from-layer="2192" from-port="0" to-layer="2193" to-port="0" />
		<edge from-layer="2193" from-port="2" to-layer="2196" to-port="0" />
		<edge from-layer="2194" from-port="0" to-layer="2195" to-port="1" />
		<edge from-layer="2195" from-port="2" to-layer="2211" to-port="0" />
		<edge from-layer="2195" from-port="2" to-layer="2196" to-port="1" />
		<edge from-layer="2196" from-port="2" to-layer="2197" to-port="0" />
		<edge from-layer="2197" from-port="1" to-layer="2198" to-port="0" />
		<edge from-layer="2198" from-port="1" to-layer="2199" to-port="0" />
		<edge from-layer="2199" from-port="1" to-layer="2205" to-port="0" />
		<edge from-layer="2199" from-port="1" to-layer="2200" to-port="0" />
		<edge from-layer="2200" from-port="1" to-layer="2201" to-port="1" />
		<edge from-layer="2201" from-port="2" to-layer="2202" to-port="0" />
		<edge from-layer="2202" from-port="1" to-layer="2203" to-port="0" />
		<edge from-layer="2203" from-port="1" to-layer="2204" to-port="0" />
		<edge from-layer="2204" from-port="1" to-layer="2206" to-port="0" />
		<edge from-layer="2205" from-port="1" to-layer="2206" to-port="1" />
		<edge from-layer="2206" from-port="2" to-layer="2208" to-port="0" />
		<edge from-layer="2207" from-port="0" to-layer="2208" to-port="1" />
		<edge from-layer="2208" from-port="2" to-layer="2209" to-port="0" />
		<edge from-layer="2209" from-port="1" to-layer="2212" to-port="0" />
		<edge from-layer="2210" from-port="0" to-layer="2211" to-port="1" />
		<edge from-layer="2211" from-port="2" to-layer="2212" to-port="1" />
		<edge from-layer="2212" from-port="2" to-layer="2214" to-port="0" />
		<edge from-layer="2213" from-port="0" to-layer="2214" to-port="1" />
		<edge from-layer="2214" from-port="2" to-layer="2215" to-port="0" />
		<edge from-layer="2215" from-port="1" to-layer="2217" to-port="0" />
		<edge from-layer="2215" from-port="1" to-layer="2220" to-port="0" />
		<edge from-layer="2215" from-port="1" to-layer="2224" to-port="0" />
		<edge from-layer="2216" from-port="0" to-layer="2217" to-port="1" />
		<edge from-layer="2217" from-port="2" to-layer="2227" to-port="0" />
		<edge from-layer="2218" from-port="0" to-layer="2221" to-port="0" />
		<edge from-layer="2219" from-port="0" to-layer="2220" to-port="1" />
		<edge from-layer="2220" from-port="2" to-layer="2221" to-port="1" />
		<edge from-layer="2221" from-port="2" to-layer="2226" to-port="0" />
		<edge from-layer="2222" from-port="0" to-layer="2225" to-port="0" />
		<edge from-layer="2223" from-port="0" to-layer="2224" to-port="1" />
		<edge from-layer="2224" from-port="2" to-layer="2225" to-port="1" />
		<edge from-layer="2225" from-port="2" to-layer="2230" to-port="1" />
		<edge from-layer="2225" from-port="2" to-layer="2226" to-port="1" />
		<edge from-layer="2226" from-port="2" to-layer="2232" to-port="0" />
		<edge from-layer="2226" from-port="2" to-layer="2227" to-port="1" />
		<edge from-layer="2227" from-port="2" to-layer="2228" to-port="0" />
		<edge from-layer="2228" from-port="1" to-layer="2238" to-port="0" />
		<edge from-layer="2229" from-port="0" to-layer="2230" to-port="0" />
		<edge from-layer="2230" from-port="2" to-layer="2233" to-port="0" />
		<edge from-layer="2231" from-port="0" to-layer="2232" to-port="1" />
		<edge from-layer="2232" from-port="2" to-layer="2248" to-port="0" />
		<edge from-layer="2232" from-port="2" to-layer="2233" to-port="1" />
		<edge from-layer="2233" from-port="2" to-layer="2234" to-port="0" />
		<edge from-layer="2234" from-port="1" to-layer="2235" to-port="0" />
		<edge from-layer="2235" from-port="1" to-layer="2236" to-port="0" />
		<edge from-layer="2236" from-port="1" to-layer="2242" to-port="0" />
		<edge from-layer="2236" from-port="1" to-layer="2237" to-port="0" />
		<edge from-layer="2237" from-port="1" to-layer="2238" to-port="1" />
		<edge from-layer="2238" from-port="2" to-layer="2239" to-port="0" />
		<edge from-layer="2239" from-port="1" to-layer="2240" to-port="0" />
		<edge from-layer="2240" from-port="1" to-layer="2241" to-port="0" />
		<edge from-layer="2241" from-port="1" to-layer="2243" to-port="0" />
		<edge from-layer="2242" from-port="1" to-layer="2243" to-port="1" />
		<edge from-layer="2243" from-port="2" to-layer="2245" to-port="0" />
		<edge from-layer="2244" from-port="0" to-layer="2245" to-port="1" />
		<edge from-layer="2245" from-port="2" to-layer="2246" to-port="0" />
		<edge from-layer="2246" from-port="1" to-layer="2249" to-port="0" />
		<edge from-layer="2247" from-port="0" to-layer="2248" to-port="1" />
		<edge from-layer="2248" from-port="2" to-layer="2249" to-port="1" />
		<edge from-layer="2249" from-port="2" to-layer="2251" to-port="0" />
		<edge from-layer="2250" from-port="0" to-layer="2251" to-port="1" />
		<edge from-layer="2251" from-port="2" to-layer="2252" to-port="1" />
		<edge from-layer="2252" from-port="2" to-layer="2253" to-port="0" />
		<edge from-layer="2253" from-port="2" to-layer="2254" to-port="2" />
		<edge from-layer="2254" from-port="3" to-layer="2257" to-port="0" />
		<edge from-layer="2255" from-port="0" to-layer="2257" to-port="1" />
		<edge from-layer="2256" from-port="0" to-layer="2257" to-port="2" />
		<edge from-layer="2257" from-port="3" to-layer="2259" to-port="0" />
		<edge from-layer="2257" from-port="4" to-layer="2317" to-port="0" />
		<edge from-layer="2258" from-port="0" to-layer="2259" to-port="1" />
		<edge from-layer="2259" from-port="2" to-layer="2261" to-port="0" />
		<edge from-layer="2260" from-port="0" to-layer="2261" to-port="1" />
		<edge from-layer="2261" from-port="2" to-layer="2262" to-port="0" />
		<edge from-layer="2262" from-port="1" to-layer="2271" to-port="0" />
		<edge from-layer="2262" from-port="1" to-layer="2264" to-port="0" />
		<edge from-layer="2262" from-port="1" to-layer="2267" to-port="0" />
		<edge from-layer="2263" from-port="0" to-layer="2264" to-port="1" />
		<edge from-layer="2264" from-port="2" to-layer="2274" to-port="0" />
		<edge from-layer="2265" from-port="0" to-layer="2268" to-port="0" />
		<edge from-layer="2266" from-port="0" to-layer="2267" to-port="1" />
		<edge from-layer="2267" from-port="2" to-layer="2268" to-port="1" />
		<edge from-layer="2268" from-port="2" to-layer="2273" to-port="0" />
		<edge from-layer="2269" from-port="0" to-layer="2272" to-port="0" />
		<edge from-layer="2270" from-port="0" to-layer="2271" to-port="1" />
		<edge from-layer="2271" from-port="2" to-layer="2272" to-port="1" />
		<edge from-layer="2272" from-port="2" to-layer="2273" to-port="1" />
		<edge from-layer="2272" from-port="2" to-layer="2277" to-port="1" />
		<edge from-layer="2273" from-port="2" to-layer="2274" to-port="1" />
		<edge from-layer="2273" from-port="2" to-layer="2279" to-port="0" />
		<edge from-layer="2274" from-port="2" to-layer="2275" to-port="0" />
		<edge from-layer="2275" from-port="1" to-layer="2285" to-port="0" />
		<edge from-layer="2276" from-port="0" to-layer="2277" to-port="0" />
		<edge from-layer="2277" from-port="2" to-layer="2280" to-port="0" />
		<edge from-layer="2278" from-port="0" to-layer="2279" to-port="1" />
		<edge from-layer="2279" from-port="2" to-layer="2280" to-port="1" />
		<edge from-layer="2279" from-port="2" to-layer="2295" to-port="0" />
		<edge from-layer="2280" from-port="2" to-layer="2281" to-port="0" />
		<edge from-layer="2281" from-port="1" to-layer="2282" to-port="0" />
		<edge from-layer="2282" from-port="1" to-layer="2283" to-port="0" />
		<edge from-layer="2283" from-port="1" to-layer="2289" to-port="0" />
		<edge from-layer="2283" from-port="1" to-layer="2284" to-port="0" />
		<edge from-layer="2284" from-port="1" to-layer="2285" to-port="1" />
		<edge from-layer="2285" from-port="2" to-layer="2286" to-port="0" />
		<edge from-layer="2286" from-port="1" to-layer="2287" to-port="0" />
		<edge from-layer="2287" from-port="1" to-layer="2288" to-port="0" />
		<edge from-layer="2288" from-port="1" to-layer="2290" to-port="0" />
		<edge from-layer="2289" from-port="1" to-layer="2290" to-port="1" />
		<edge from-layer="2290" from-port="2" to-layer="2292" to-port="0" />
		<edge from-layer="2291" from-port="0" to-layer="2292" to-port="1" />
		<edge from-layer="2292" from-port="2" to-layer="2293" to-port="0" />
		<edge from-layer="2293" from-port="1" to-layer="2296" to-port="0" />
		<edge from-layer="2294" from-port="0" to-layer="2295" to-port="1" />
		<edge from-layer="2295" from-port="2" to-layer="2296" to-port="1" />
		<edge from-layer="2296" from-port="2" to-layer="2298" to-port="0" />
		<edge from-layer="2297" from-port="0" to-layer="2298" to-port="1" />
		<edge from-layer="2298" from-port="2" to-layer="2302" to-port="0" />
		<edge from-layer="2298" from-port="2" to-layer="2308" to-port="0" />
		<edge from-layer="2299" from-port="0" to-layer="2302" to-port="1" />
		<edge from-layer="2300" from-port="0" to-layer="2302" to-port="2" />
		<edge from-layer="2301" from-port="0" to-layer="2302" to-port="3" />
		<edge from-layer="2302" from-port="4" to-layer="2303" to-port="1" />
		<edge from-layer="2303" from-port="2" to-layer="2313" to-port="1" />
		<edge from-layer="2303" from-port="2" to-layer="2310" to-port="0" />
		<edge from-layer="2304" from-port="0" to-layer="2309" to-port="0" />
		<edge from-layer="2305" from-port="0" to-layer="2308" to-port="1" />
		<edge from-layer="2306" from-port="0" to-layer="2308" to-port="2" />
		<edge from-layer="2307" from-port="0" to-layer="2308" to-port="3" />
		<edge from-layer="2308" from-port="4" to-layer="2309" to-port="1" />
		<edge from-layer="2309" from-port="2" to-layer="2313" to-port="0" />
		<edge from-layer="2309" from-port="2" to-layer="2310" to-port="1" />
		<edge from-layer="2310" from-port="2" to-layer="2312" to-port="0" />
		<edge from-layer="2311" from-port="0" to-layer="2312" to-port="1" />
		<edge from-layer="2312" from-port="2" to-layer="2314" to-port="0" />
		<edge from-layer="2313" from-port="2" to-layer="2314" to-port="1" />
		<edge from-layer="2314" from-port="2" to-layer="2316" to-port="0" />
		<edge from-layer="2315" from-port="0" to-layer="2316" to-port="1" />
		<edge from-layer="2316" from-port="2" to-layer="2589" to-port="0" />
		<edge from-layer="2317" from-port="1" to-layer="2589" to-port="1" />
		<edge from-layer="2318" from-port="1" to-layer="2320" to-port="0" />
		<edge from-layer="2319" from-port="1" to-layer="2320" to-port="1" />
		<edge from-layer="2320" from-port="2" to-layer="2322" to-port="0" />
		<edge from-layer="2321" from-port="0" to-layer="2322" to-port="1" />
		<edge from-layer="2322" from-port="2" to-layer="2323" to-port="0" />
		<edge from-layer="2323" from-port="1" to-layer="2326" to-port="0" />
		<edge from-layer="2324" from-port="0" to-layer="2325" to-port="1" />
		<edge from-layer="2325" from-port="2" to-layer="2326" to-port="1" />
		<edge from-layer="2326" from-port="2" to-layer="2328" to-port="0" />
		<edge from-layer="2327" from-port="0" to-layer="2328" to-port="1" />
		<edge from-layer="2328" from-port="2" to-layer="2329" to-port="0" />
		<edge from-layer="2329" from-port="1" to-layer="2331" to-port="0" />
		<edge from-layer="2329" from-port="1" to-layer="2334" to-port="0" />
		<edge from-layer="2329" from-port="1" to-layer="2338" to-port="0" />
		<edge from-layer="2330" from-port="0" to-layer="2331" to-port="1" />
		<edge from-layer="2331" from-port="2" to-layer="2341" to-port="0" />
		<edge from-layer="2332" from-port="0" to-layer="2335" to-port="0" />
		<edge from-layer="2333" from-port="0" to-layer="2334" to-port="1" />
		<edge from-layer="2334" from-port="2" to-layer="2335" to-port="1" />
		<edge from-layer="2335" from-port="2" to-layer="2340" to-port="0" />
		<edge from-layer="2336" from-port="0" to-layer="2339" to-port="0" />
		<edge from-layer="2337" from-port="0" to-layer="2338" to-port="1" />
		<edge from-layer="2338" from-port="2" to-layer="2339" to-port="1" />
		<edge from-layer="2339" from-port="2" to-layer="2344" to-port="1" />
		<edge from-layer="2339" from-port="2" to-layer="2340" to-port="1" />
		<edge from-layer="2340" from-port="2" to-layer="2346" to-port="0" />
		<edge from-layer="2340" from-port="2" to-layer="2341" to-port="1" />
		<edge from-layer="2341" from-port="2" to-layer="2342" to-port="0" />
		<edge from-layer="2342" from-port="1" to-layer="2352" to-port="0" />
		<edge from-layer="2343" from-port="0" to-layer="2344" to-port="0" />
		<edge from-layer="2344" from-port="2" to-layer="2347" to-port="0" />
		<edge from-layer="2345" from-port="0" to-layer="2346" to-port="1" />
		<edge from-layer="2346" from-port="2" to-layer="2347" to-port="1" />
		<edge from-layer="2346" from-port="2" to-layer="2362" to-port="0" />
		<edge from-layer="2347" from-port="2" to-layer="2348" to-port="0" />
		<edge from-layer="2348" from-port="1" to-layer="2349" to-port="0" />
		<edge from-layer="2349" from-port="1" to-layer="2350" to-port="0" />
		<edge from-layer="2350" from-port="1" to-layer="2356" to-port="0" />
		<edge from-layer="2350" from-port="1" to-layer="2351" to-port="0" />
		<edge from-layer="2351" from-port="1" to-layer="2352" to-port="1" />
		<edge from-layer="2352" from-port="2" to-layer="2353" to-port="0" />
		<edge from-layer="2353" from-port="1" to-layer="2354" to-port="0" />
		<edge from-layer="2354" from-port="1" to-layer="2355" to-port="0" />
		<edge from-layer="2355" from-port="1" to-layer="2357" to-port="0" />
		<edge from-layer="2356" from-port="1" to-layer="2357" to-port="1" />
		<edge from-layer="2357" from-port="2" to-layer="2359" to-port="0" />
		<edge from-layer="2358" from-port="0" to-layer="2359" to-port="1" />
		<edge from-layer="2359" from-port="2" to-layer="2360" to-port="0" />
		<edge from-layer="2360" from-port="1" to-layer="2363" to-port="0" />
		<edge from-layer="2361" from-port="0" to-layer="2362" to-port="1" />
		<edge from-layer="2362" from-port="2" to-layer="2363" to-port="1" />
		<edge from-layer="2363" from-port="2" to-layer="2365" to-port="0" />
		<edge from-layer="2364" from-port="0" to-layer="2365" to-port="1" />
		<edge from-layer="2365" from-port="2" to-layer="2366" to-port="0" />
		<edge from-layer="2366" from-port="1" to-layer="2375" to-port="0" />
		<edge from-layer="2366" from-port="1" to-layer="2371" to-port="0" />
		<edge from-layer="2366" from-port="1" to-layer="2368" to-port="0" />
		<edge from-layer="2367" from-port="0" to-layer="2368" to-port="1" />
		<edge from-layer="2368" from-port="2" to-layer="2378" to-port="0" />
		<edge from-layer="2369" from-port="0" to-layer="2372" to-port="0" />
		<edge from-layer="2370" from-port="0" to-layer="2371" to-port="1" />
		<edge from-layer="2371" from-port="2" to-layer="2372" to-port="1" />
		<edge from-layer="2372" from-port="2" to-layer="2377" to-port="0" />
		<edge from-layer="2373" from-port="0" to-layer="2376" to-port="0" />
		<edge from-layer="2374" from-port="0" to-layer="2375" to-port="1" />
		<edge from-layer="2375" from-port="2" to-layer="2376" to-port="1" />
		<edge from-layer="2376" from-port="2" to-layer="2381" to-port="1" />
		<edge from-layer="2376" from-port="2" to-layer="2377" to-port="1" />
		<edge from-layer="2377" from-port="2" to-layer="2383" to-port="0" />
		<edge from-layer="2377" from-port="2" to-layer="2378" to-port="1" />
		<edge from-layer="2378" from-port="2" to-layer="2379" to-port="0" />
		<edge from-layer="2379" from-port="1" to-layer="2389" to-port="0" />
		<edge from-layer="2380" from-port="0" to-layer="2381" to-port="0" />
		<edge from-layer="2381" from-port="2" to-layer="2384" to-port="0" />
		<edge from-layer="2382" from-port="0" to-layer="2383" to-port="1" />
		<edge from-layer="2383" from-port="2" to-layer="2384" to-port="1" />
		<edge from-layer="2383" from-port="2" to-layer="2399" to-port="0" />
		<edge from-layer="2384" from-port="2" to-layer="2385" to-port="0" />
		<edge from-layer="2385" from-port="1" to-layer="2386" to-port="0" />
		<edge from-layer="2386" from-port="1" to-layer="2387" to-port="0" />
		<edge from-layer="2387" from-port="1" to-layer="2388" to-port="0" />
		<edge from-layer="2387" from-port="1" to-layer="2393" to-port="0" />
		<edge from-layer="2388" from-port="1" to-layer="2389" to-port="1" />
		<edge from-layer="2389" from-port="2" to-layer="2390" to-port="0" />
		<edge from-layer="2390" from-port="1" to-layer="2391" to-port="0" />
		<edge from-layer="2391" from-port="1" to-layer="2392" to-port="0" />
		<edge from-layer="2392" from-port="1" to-layer="2394" to-port="0" />
		<edge from-layer="2393" from-port="1" to-layer="2394" to-port="1" />
		<edge from-layer="2394" from-port="2" to-layer="2396" to-port="0" />
		<edge from-layer="2395" from-port="0" to-layer="2396" to-port="1" />
		<edge from-layer="2396" from-port="2" to-layer="2397" to-port="0" />
		<edge from-layer="2397" from-port="1" to-layer="2400" to-port="0" />
		<edge from-layer="2398" from-port="0" to-layer="2399" to-port="1" />
		<edge from-layer="2399" from-port="2" to-layer="2400" to-port="1" />
		<edge from-layer="2400" from-port="2" to-layer="2402" to-port="0" />
		<edge from-layer="2401" from-port="0" to-layer="2402" to-port="1" />
		<edge from-layer="2402" from-port="2" to-layer="2404" to-port="0" />
		<edge from-layer="2403" from-port="0" to-layer="2490" to-port="1" />
		<edge from-layer="2403" from-port="0" to-layer="2576" to-port="1" />
		<edge from-layer="2403" from-port="0" to-layer="2588" to-port="1" />
		<edge from-layer="2403" from-port="0" to-layer="2404" to-port="1" />
		<edge from-layer="2404" from-port="2" to-layer="2577" to-port="0" />
		<edge from-layer="2405" from-port="1" to-layer="2407" to-port="0" />
		<edge from-layer="2406" from-port="1" to-layer="2407" to-port="1" />
		<edge from-layer="2407" from-port="2" to-layer="2409" to-port="0" />
		<edge from-layer="2408" from-port="0" to-layer="2409" to-port="1" />
		<edge from-layer="2409" from-port="2" to-layer="2410" to-port="0" />
		<edge from-layer="2410" from-port="1" to-layer="2413" to-port="0" />
		<edge from-layer="2411" from-port="0" to-layer="2412" to-port="1" />
		<edge from-layer="2412" from-port="2" to-layer="2413" to-port="1" />
		<edge from-layer="2413" from-port="2" to-layer="2415" to-port="0" />
		<edge from-layer="2414" from-port="0" to-layer="2415" to-port="1" />
		<edge from-layer="2415" from-port="2" to-layer="2416" to-port="0" />
		<edge from-layer="2416" from-port="1" to-layer="2421" to-port="0" />
		<edge from-layer="2416" from-port="1" to-layer="2418" to-port="0" />
		<edge from-layer="2416" from-port="1" to-layer="2425" to-port="0" />
		<edge from-layer="2417" from-port="0" to-layer="2418" to-port="1" />
		<edge from-layer="2418" from-port="2" to-layer="2428" to-port="0" />
		<edge from-layer="2419" from-port="0" to-layer="2422" to-port="0" />
		<edge from-layer="2420" from-port="0" to-layer="2421" to-port="1" />
		<edge from-layer="2421" from-port="2" to-layer="2422" to-port="1" />
		<edge from-layer="2422" from-port="2" to-layer="2427" to-port="0" />
		<edge from-layer="2423" from-port="0" to-layer="2426" to-port="0" />
		<edge from-layer="2424" from-port="0" to-layer="2425" to-port="1" />
		<edge from-layer="2425" from-port="2" to-layer="2426" to-port="1" />
		<edge from-layer="2426" from-port="2" to-layer="2431" to-port="1" />
		<edge from-layer="2426" from-port="2" to-layer="2427" to-port="1" />
		<edge from-layer="2427" from-port="2" to-layer="2433" to-port="0" />
		<edge from-layer="2427" from-port="2" to-layer="2428" to-port="1" />
		<edge from-layer="2428" from-port="2" to-layer="2429" to-port="0" />
		<edge from-layer="2429" from-port="1" to-layer="2439" to-port="0" />
		<edge from-layer="2430" from-port="0" to-layer="2431" to-port="0" />
		<edge from-layer="2431" from-port="2" to-layer="2434" to-port="0" />
		<edge from-layer="2432" from-port="0" to-layer="2433" to-port="1" />
		<edge from-layer="2433" from-port="2" to-layer="2434" to-port="1" />
		<edge from-layer="2433" from-port="2" to-layer="2449" to-port="0" />
		<edge from-layer="2434" from-port="2" to-layer="2435" to-port="0" />
		<edge from-layer="2435" from-port="1" to-layer="2436" to-port="0" />
		<edge from-layer="2436" from-port="1" to-layer="2437" to-port="0" />
		<edge from-layer="2437" from-port="1" to-layer="2443" to-port="0" />
		<edge from-layer="2437" from-port="1" to-layer="2438" to-port="0" />
		<edge from-layer="2438" from-port="1" to-layer="2439" to-port="1" />
		<edge from-layer="2439" from-port="2" to-layer="2440" to-port="0" />
		<edge from-layer="2440" from-port="1" to-layer="2441" to-port="0" />
		<edge from-layer="2441" from-port="1" to-layer="2442" to-port="0" />
		<edge from-layer="2442" from-port="1" to-layer="2444" to-port="0" />
		<edge from-layer="2443" from-port="1" to-layer="2444" to-port="1" />
		<edge from-layer="2444" from-port="2" to-layer="2446" to-port="0" />
		<edge from-layer="2445" from-port="0" to-layer="2446" to-port="1" />
		<edge from-layer="2446" from-port="2" to-layer="2447" to-port="0" />
		<edge from-layer="2447" from-port="1" to-layer="2450" to-port="0" />
		<edge from-layer="2448" from-port="0" to-layer="2449" to-port="1" />
		<edge from-layer="2449" from-port="2" to-layer="2450" to-port="1" />
		<edge from-layer="2450" from-port="2" to-layer="2452" to-port="0" />
		<edge from-layer="2451" from-port="0" to-layer="2452" to-port="1" />
		<edge from-layer="2452" from-port="2" to-layer="2453" to-port="0" />
		<edge from-layer="2453" from-port="1" to-layer="2462" to-port="0" />
		<edge from-layer="2453" from-port="1" to-layer="2458" to-port="0" />
		<edge from-layer="2453" from-port="1" to-layer="2455" to-port="0" />
		<edge from-layer="2454" from-port="0" to-layer="2455" to-port="1" />
		<edge from-layer="2455" from-port="2" to-layer="2465" to-port="0" />
		<edge from-layer="2456" from-port="0" to-layer="2459" to-port="0" />
		<edge from-layer="2457" from-port="0" to-layer="2458" to-port="1" />
		<edge from-layer="2458" from-port="2" to-layer="2459" to-port="1" />
		<edge from-layer="2459" from-port="2" to-layer="2464" to-port="0" />
		<edge from-layer="2460" from-port="0" to-layer="2463" to-port="0" />
		<edge from-layer="2461" from-port="0" to-layer="2462" to-port="1" />
		<edge from-layer="2462" from-port="2" to-layer="2463" to-port="1" />
		<edge from-layer="2463" from-port="2" to-layer="2464" to-port="1" />
		<edge from-layer="2463" from-port="2" to-layer="2468" to-port="1" />
		<edge from-layer="2464" from-port="2" to-layer="2465" to-port="1" />
		<edge from-layer="2464" from-port="2" to-layer="2470" to-port="0" />
		<edge from-layer="2465" from-port="2" to-layer="2466" to-port="0" />
		<edge from-layer="2466" from-port="1" to-layer="2476" to-port="0" />
		<edge from-layer="2467" from-port="0" to-layer="2468" to-port="0" />
		<edge from-layer="2468" from-port="2" to-layer="2471" to-port="0" />
		<edge from-layer="2469" from-port="0" to-layer="2470" to-port="1" />
		<edge from-layer="2470" from-port="2" to-layer="2486" to-port="0" />
		<edge from-layer="2470" from-port="2" to-layer="2471" to-port="1" />
		<edge from-layer="2471" from-port="2" to-layer="2472" to-port="0" />
		<edge from-layer="2472" from-port="1" to-layer="2473" to-port="0" />
		<edge from-layer="2473" from-port="1" to-layer="2474" to-port="0" />
		<edge from-layer="2474" from-port="1" to-layer="2480" to-port="0" />
		<edge from-layer="2474" from-port="1" to-layer="2475" to-port="0" />
		<edge from-layer="2475" from-port="1" to-layer="2476" to-port="1" />
		<edge from-layer="2476" from-port="2" to-layer="2477" to-port="0" />
		<edge from-layer="2477" from-port="1" to-layer="2478" to-port="0" />
		<edge from-layer="2478" from-port="1" to-layer="2479" to-port="0" />
		<edge from-layer="2479" from-port="1" to-layer="2481" to-port="0" />
		<edge from-layer="2480" from-port="1" to-layer="2481" to-port="1" />
		<edge from-layer="2481" from-port="2" to-layer="2483" to-port="0" />
		<edge from-layer="2482" from-port="0" to-layer="2483" to-port="1" />
		<edge from-layer="2483" from-port="2" to-layer="2484" to-port="0" />
		<edge from-layer="2484" from-port="1" to-layer="2487" to-port="0" />
		<edge from-layer="2485" from-port="0" to-layer="2486" to-port="1" />
		<edge from-layer="2486" from-port="2" to-layer="2487" to-port="1" />
		<edge from-layer="2487" from-port="2" to-layer="2489" to-port="0" />
		<edge from-layer="2488" from-port="0" to-layer="2489" to-port="1" />
		<edge from-layer="2489" from-port="2" to-layer="2490" to-port="0" />
		<edge from-layer="2490" from-port="2" to-layer="2577" to-port="1" />
		<edge from-layer="2491" from-port="1" to-layer="2493" to-port="0" />
		<edge from-layer="2492" from-port="1" to-layer="2493" to-port="1" />
		<edge from-layer="2493" from-port="2" to-layer="2495" to-port="0" />
		<edge from-layer="2494" from-port="0" to-layer="2495" to-port="1" />
		<edge from-layer="2495" from-port="2" to-layer="2496" to-port="0" />
		<edge from-layer="2496" from-port="1" to-layer="2499" to-port="0" />
		<edge from-layer="2497" from-port="0" to-layer="2498" to-port="1" />
		<edge from-layer="2498" from-port="2" to-layer="2499" to-port="1" />
		<edge from-layer="2499" from-port="2" to-layer="2501" to-port="0" />
		<edge from-layer="2500" from-port="0" to-layer="2501" to-port="1" />
		<edge from-layer="2501" from-port="2" to-layer="2502" to-port="0" />
		<edge from-layer="2502" from-port="1" to-layer="2504" to-port="0" />
		<edge from-layer="2502" from-port="1" to-layer="2507" to-port="0" />
		<edge from-layer="2502" from-port="1" to-layer="2511" to-port="0" />
		<edge from-layer="2503" from-port="0" to-layer="2504" to-port="1" />
		<edge from-layer="2504" from-port="2" to-layer="2514" to-port="0" />
		<edge from-layer="2505" from-port="0" to-layer="2508" to-port="0" />
		<edge from-layer="2506" from-port="0" to-layer="2507" to-port="1" />
		<edge from-layer="2507" from-port="2" to-layer="2508" to-port="1" />
		<edge from-layer="2508" from-port="2" to-layer="2513" to-port="0" />
		<edge from-layer="2509" from-port="0" to-layer="2512" to-port="0" />
		<edge from-layer="2510" from-port="0" to-layer="2511" to-port="1" />
		<edge from-layer="2511" from-port="2" to-layer="2512" to-port="1" />
		<edge from-layer="2512" from-port="2" to-layer="2517" to-port="1" />
		<edge from-layer="2512" from-port="2" to-layer="2513" to-port="1" />
		<edge from-layer="2513" from-port="2" to-layer="2514" to-port="1" />
		<edge from-layer="2513" from-port="2" to-layer="2519" to-port="0" />
		<edge from-layer="2514" from-port="2" to-layer="2515" to-port="0" />
		<edge from-layer="2515" from-port="1" to-layer="2525" to-port="0" />
		<edge from-layer="2516" from-port="0" to-layer="2517" to-port="0" />
		<edge from-layer="2517" from-port="2" to-layer="2520" to-port="0" />
		<edge from-layer="2518" from-port="0" to-layer="2519" to-port="1" />
		<edge from-layer="2519" from-port="2" to-layer="2535" to-port="0" />
		<edge from-layer="2519" from-port="2" to-layer="2520" to-port="1" />
		<edge from-layer="2520" from-port="2" to-layer="2521" to-port="0" />
		<edge from-layer="2521" from-port="1" to-layer="2522" to-port="0" />
		<edge from-layer="2522" from-port="1" to-layer="2523" to-port="0" />
		<edge from-layer="2523" from-port="1" to-layer="2529" to-port="0" />
		<edge from-layer="2523" from-port="1" to-layer="2524" to-port="0" />
		<edge from-layer="2524" from-port="1" to-layer="2525" to-port="1" />
		<edge from-layer="2525" from-port="2" to-layer="2526" to-port="0" />
		<edge from-layer="2526" from-port="1" to-layer="2527" to-port="0" />
		<edge from-layer="2527" from-port="1" to-layer="2528" to-port="0" />
		<edge from-layer="2528" from-port="1" to-layer="2530" to-port="0" />
		<edge from-layer="2529" from-port="1" to-layer="2530" to-port="1" />
		<edge from-layer="2530" from-port="2" to-layer="2532" to-port="0" />
		<edge from-layer="2531" from-port="0" to-layer="2532" to-port="1" />
		<edge from-layer="2532" from-port="2" to-layer="2533" to-port="0" />
		<edge from-layer="2533" from-port="1" to-layer="2536" to-port="0" />
		<edge from-layer="2534" from-port="0" to-layer="2535" to-port="1" />
		<edge from-layer="2535" from-port="2" to-layer="2536" to-port="1" />
		<edge from-layer="2536" from-port="2" to-layer="2538" to-port="0" />
		<edge from-layer="2537" from-port="0" to-layer="2538" to-port="1" />
		<edge from-layer="2538" from-port="2" to-layer="2539" to-port="0" />
		<edge from-layer="2539" from-port="1" to-layer="2541" to-port="0" />
		<edge from-layer="2539" from-port="1" to-layer="2544" to-port="0" />
		<edge from-layer="2539" from-port="1" to-layer="2548" to-port="0" />
		<edge from-layer="2540" from-port="0" to-layer="2541" to-port="1" />
		<edge from-layer="2541" from-port="2" to-layer="2551" to-port="0" />
		<edge from-layer="2542" from-port="0" to-layer="2545" to-port="0" />
		<edge from-layer="2543" from-port="0" to-layer="2544" to-port="1" />
		<edge from-layer="2544" from-port="2" to-layer="2545" to-port="1" />
		<edge from-layer="2545" from-port="2" to-layer="2550" to-port="0" />
		<edge from-layer="2546" from-port="0" to-layer="2549" to-port="0" />
		<edge from-layer="2547" from-port="0" to-layer="2548" to-port="1" />
		<edge from-layer="2548" from-port="2" to-layer="2549" to-port="1" />
		<edge from-layer="2549" from-port="2" to-layer="2550" to-port="1" />
		<edge from-layer="2549" from-port="2" to-layer="2554" to-port="1" />
		<edge from-layer="2550" from-port="2" to-layer="2551" to-port="1" />
		<edge from-layer="2550" from-port="2" to-layer="2556" to-port="0" />
		<edge from-layer="2551" from-port="2" to-layer="2552" to-port="0" />
		<edge from-layer="2552" from-port="1" to-layer="2562" to-port="0" />
		<edge from-layer="2553" from-port="0" to-layer="2554" to-port="0" />
		<edge from-layer="2554" from-port="2" to-layer="2557" to-port="0" />
		<edge from-layer="2555" from-port="0" to-layer="2556" to-port="1" />
		<edge from-layer="2556" from-port="2" to-layer="2557" to-port="1" />
		<edge from-layer="2556" from-port="2" to-layer="2572" to-port="0" />
		<edge from-layer="2557" from-port="2" to-layer="2558" to-port="0" />
		<edge from-layer="2558" from-port="1" to-layer="2559" to-port="0" />
		<edge from-layer="2559" from-port="1" to-layer="2560" to-port="0" />
		<edge from-layer="2560" from-port="1" to-layer="2566" to-port="0" />
		<edge from-layer="2560" from-port="1" to-layer="2561" to-port="0" />
		<edge from-layer="2561" from-port="1" to-layer="2562" to-port="1" />
		<edge from-layer="2562" from-port="2" to-layer="2563" to-port="0" />
		<edge from-layer="2563" from-port="1" to-layer="2564" to-port="0" />
		<edge from-layer="2564" from-port="1" to-layer="2565" to-port="0" />
		<edge from-layer="2565" from-port="1" to-layer="2567" to-port="0" />
		<edge from-layer="2566" from-port="1" to-layer="2567" to-port="1" />
		<edge from-layer="2567" from-port="2" to-layer="2569" to-port="0" />
		<edge from-layer="2568" from-port="0" to-layer="2569" to-port="1" />
		<edge from-layer="2569" from-port="2" to-layer="2570" to-port="0" />
		<edge from-layer="2570" from-port="1" to-layer="2573" to-port="0" />
		<edge from-layer="2571" from-port="0" to-layer="2572" to-port="1" />
		<edge from-layer="2572" from-port="2" to-layer="2573" to-port="1" />
		<edge from-layer="2573" from-port="2" to-layer="2575" to-port="0" />
		<edge from-layer="2574" from-port="0" to-layer="2575" to-port="1" />
		<edge from-layer="2575" from-port="2" to-layer="2576" to-port="0" />
		<edge from-layer="2576" from-port="2" to-layer="2577" to-port="2" />
		<edge from-layer="2577" from-port="3" to-layer="2579" to-port="0" />
		<edge from-layer="2578" from-port="0" to-layer="2579" to-port="1" />
		<edge from-layer="2579" from-port="2" to-layer="2583" to-port="0" />
		<edge from-layer="2580" from-port="0" to-layer="2583" to-port="1" />
		<edge from-layer="2581" from-port="0" to-layer="2583" to-port="2" />
		<edge from-layer="2582" from-port="0" to-layer="2583" to-port="3" />
		<edge from-layer="2583" from-port="4" to-layer="2585" to-port="0" />
		<edge from-layer="2584" from-port="0" to-layer="2585" to-port="1" />
		<edge from-layer="2585" from-port="2" to-layer="2587" to-port="0" />
		<edge from-layer="2586" from-port="0" to-layer="2587" to-port="1" />
		<edge from-layer="2587" from-port="2" to-layer="2588" to-port="0" />
		<edge from-layer="2588" from-port="2" to-layer="2589" to-port="2" />
		<edge from-layer="2589" from-port="3" to-layer="2590" to-port="0" />
	</edges>
	<rt_info>
		<MO_version value="2023.0.1-11005-fa1c41994f3-releases/2023/0" />
		<Runtime_version value="2023.0.0-10926-b4452d56304-releases/2023/0" />
		<conversion_parameters>
			<input_model value="DIR/best_int8.onnx" />
			<input_shape value="[1,3,640,640]" />
			<is_python_api_used value="False" />
			<output_dir value="DIR" />
		</conversion_parameters>
		<framework>
			<author value="Ultralytics" />
			<batch value="1" />
			<date value="2024-02-27T17:07:22.675663" />
			<description value="Ultralytics energy-pose model trained on C:\ultralytics\data\energy.yaml" />
			<imgsz value="[640, 640]" />
			<kpt_shape value="[4, 2]" />
			<license value="AGPL-3.0 https://ultralytics.com/license" />
			<names value="{0: 'leaf'}" />
			<onnx.infer value="onnxruntime.quant" />
			<onnx.quant.pre_process value="onnxruntime.quant" />
			<stride value="32" />
			<task value="pose" />
			<version value="8.1.5" />
		</framework>
		<legacy_frontend value="False" />
	</rt_info>
</net>
